models_checkpoints/model_test.pt (torch_old, 45160 bytes, 7 tensors)

fc.0.weight f4 [64, 128]
0	0xbe9312b0	-0.28725195
1	0xbed8fae4	-0.42378914
2	0xbdfd754b	-0.123758875
3	0x3a12fb48	0.0005606902
4	0xbd77c25d	-0.060488094
5	0x3d070e38	0.032972544
6	0xbde90819	-0.11378498
7	0xbed70768	-0.41997838
8	0xbe62c24c	-0.22144431
9	0xbdb69eff	-0.08917045
10	0xbec25062	-0.37951952
11	0xbd8a6540	-0.06757593
12	0xbe09197a	-0.13388625
13	0xbda006ac	-0.078137726
14	0x3dc8265e	0.09772943
15	0x3c363e58	0.011123262
16	0x3e4dba83	0.2009068
17	0xbe1a0d09	-0.15044035
18	0x3d64e4c2	0.055882223
19	0xbb7212e7	-0.0036937536
20	0xbd9d806d	-0.07690511
21	0xbd7225c2	-0.05911804
22	0xbe4fb170	-0.20282531
23	0xbe1cda3e	-0.15317628
24	0xbd8f1e85	-0.06988243
25	0x3e225dd0	0.15856099
26	0x3c1e0c3c	0.009646472
27	0x3d54f30a	0.051989593
28	0xbde327cf	-0.11091577
29	0x3e369c32	0.17833021
30	0x3d4fc3ae	0.050723724
31	0x3dd04775	0.10169879
32	0x3da9e186	0.08294968
33	0x3ddc603a	0.10760541
34	0x3e1c7131	0.15277554
35	0x3d204a36	0.039133273
36	0xbc33c5ff	-0.010972499
37	0xbde513a2	-0.11185385
38	0xbdd21152	-0.1025721
39	0xb98649b7	-0.00025613394
40	0xbe6e9d1a	-0.23302117
41	0xbe4f23ef	-0.20228551
42	0xbe9cac54	-0.30600226
43	0xbd2bc511	-0.041935984
44	0xbba9bd77	-0.0051800567
45	0x3e3d7f06	0.18505487
46	0x3d7dc73b	0.06195758
47	0x3d1db83e	0.038505785
48	0x3da58ae6	0.080831334
49	0x3e0a830c	0.13526553
50	0x3db3cfd5	0.08779875
51	0xbe5e9c0e	-0.21739218
52	0xbd9ad6e9	-0.07560522
53	0x3d5e115a	0.054215766
54	0xbc252b38	-0.010081105
55	0xbdc5b6c7	-0.09654003
56	0xbc2bce52	-0.010486202
57	0x3e131429	0.14363159
58	0x3e0715e3	0.13191943
59	0x3e3bc261	0.18335868
60	0x3da9f72d	0.08299098
61	0x3e686c2d	0.22697516
62	0x3e0639c4	0.13107973
63	0xbc10fc60	-0.008849233
64	0xbeadf37f	-0.33974835
65	0xbee29f03	-0.4426194
66	0x3cec347d	0.028833622
67	0xbe527c30	-0.20555186
68	0x3e231a13	0.15927915
69	0x3c1f6147	0.009727783
70	0x3d938fda	0.07205172
71	0xbef8ba7c	-0.48579776
72	0xbf04b103	-0.518326
73	0x3e03de91	0.12877871
74	0xbee75075	-0.4517857
75	0x3e2869eb	0.16446654
76	0x3c32ec49	0.010920593
77	0xbac386ca	-0.001491749
78	0xbdb754a5	-0.089516915
79	0x3d60ef76	0.054915868
80	0x3b90ad4f	0.0044151912
81	0x3d9e7cc0	0.07738638
82	0x3dc4e1a0	0.09613347
83	0xbdc1def8	-0.09466356
84	0xbd1055a7	-0.035237934
85	0xbc5538e8	-0.013014056
86	0x3d80138d	0.06253729
87	0xbd3c8a93	-0.046030592
88	0xbe8fd9dc	-0.280959
89	0xbd1fcd11	-0.039013926
90	0xbd8a6c55	-0.06758944
91	0x3d5d5745	0.054038305
92	0x3df9b618	0.12192935
93	0x3e45583a	0.19271937
94	0x3c405c28	0.011740722
95	0xbe1b060b	-0.15139024
96	0x3d916139	0.07098622
97	0xbca60863	-0.020267671
98	0xbd50d7b9	-0.05098698
99	0x3d79aaf6	0.060954057
100	0xbdf152b3	-0.11783352
101	0x3db04206	0.08606343
102	0x3df25077	0.11831754
103	0xbc78b234	-0.015179206
104	0xbcfee09b	-0.03111296
105	0x3bf89dc4	0.0075871665
106	0xbe839392	-0.25698525
107	0xbe6f1e63	-0.23351435
108	0x3d54cae4	0.051951304
109	0x3d8c6cc5	0.06856684
110	0x3d8a91c4	0.06766084
111	0x3cfb1db2	0.030653808
112	0xbc338dd5	-0.010959108
113	0x3d922791	0.07136453
114	0xbc1d6390	-0.009606257
115	0xbe1c7b0b	-0.15281312
116	0x3d2875c5	0.04112794
117	0x3e3bb78a	0.18331733
118	0x3d96d15a	0.073641494
119	0x3db1f6bb	0.08689638
120	0x3c88f84e	0.016719963
121	0xbc10cfb0	-0.008838579
122	0x3da4043d	0.08008621
123	0xbda61690	-0.08109772
124	0xbdf12157	-0.11773937
125	0x3d4075e7	0.04698744
126	0xbd0d3932	-0.034478374
127	0xbd2bca31	-0.04194087
128	0xbeaed8bf	-0.3414974
129	0xbe573f32	-0.21020201
130	0x3c3bc91c	0.011461522
131	0x3dbba87e	0.09162997
132	0x3d1e6b3a	0.038676478
133	0xbc99304b	-0.018699786
134	0x3e5416f3	0.2071188
135	0xbe834592	-0.25639015
136	0xbe60d2da	-0.21955433
137	0xbdc07472	-0.0939721
138	0xbe8d560b	-0.27604708
139	0x3f0080a6	0.501963
140	0xbe1d1a2a	-0.15342012
141	0x3d98dca1	0.074639566
142	0xbe49a44b	-0.19691579
143	0xbab77280	-0.0013995916
144	0x3c873ae8	0.01650758
145	0xbd56ee64	-0.05247344
146	0x3d60fcea	0.054928698
147	0xbe5082ff	-0.20362471
148	0x3e74c952	0.23904923
149	0x3dea9ac5	0.11455301
150	0x3db3e521	0.08783937
151	0xbd058c73	-0.032604646
152	0xbe73fbd1	-0.23826529
153	0xbde55d0f	-0.1119939
154	0xbb83659c	-0.0040099155
155	0x3e2981ce	0.16553423
156	0x3c8a94c4	0.01691664
157	0x3dd7f4b5	0.10544721
158	0x3cfb0304	0.030641086
159	0x3e183057	0.1486219
160	0xbd5681dd	-0.05236994
161	0x3cc276f3	0.02373836
162	0x3c9f2eff	0.01943159
163	0x3d9f7ee6	0.07787876
164	0xbd56cd41	-0.05244184
165	0xbe6ac1d6	-0.22925505
166	0xbda16288	-0.078801215
167	0x3e26e265	0.162973
168	0xbcfde410	-0.030992538
169	0xbc9c7caa	-0.019102413
170	0xbea67bca	-0.3251632
171	0xbdde0c66	-0.108422086
172	0x3d4dd213	0.05024917
173	0x3d0628c7	0.032753732
174	0x3e20c14a	0.15698734
175	0x3e0ce7e0	0.13760328
176	0xbdd56e8c	-0.10421476
177	0xbd7838d7	-0.06060108
178	0xbe97a34f	-0.29616782
179	0x3d4e418a	0.05035547
180	0x3ccb6558	0.024828598
181	0xbe026354	-0.12733203
182	0x3a98a65b	0.0011646257
183	0x3cb91410	0.022592574
184	0x3d1339ec	0.03594391
185	0x3d08fb91	0.033443037
186	0xbd34f3de	-0.044177882
187	0x3d0b6918	0.034035772
188	0xbdb5ecaf	-0.088830344
189	0xbe0bc2b6	-0.13648495
190	0xbd6e99c2	-0.058252104
191	0x3d875b41	0.06609202
192	0x3f266656	0.649999
193	0x3f236c0e	0.63836753
194	0x3d2649a6	0.04059758
195	0xbd93ab3a	-0.07210393
196	0x3c99b8cc	0.018764876
197	0xbde53465	-0.11191634
198	0xbad9236f	-0.0016566346
199	0x3f1907ec	0.5977771
200	0x3f1e47f9	0.6182857
201	0xbd575121	-0.052567605
202	0x3f2911a2	0.6604253
203	0x3e9a71b4	0.30164874
204	0xbe1d8f3f	-0.15386675
205	0x3d830029	0.06396515
206	0xbdeb38ca	-0.11485441
207	0xbd9608a0	-0.07325864
208	0xbd7fed55	-0.062482197
209	0x3dd7495f	0.10512041
210	0x3b1376bc	0.002250119
211	0x3dc62bf2	0.09676351
212	0xbda1fa0e	-0.07909022
213	0xbd4d2132	-0.050080486
214	0xbd0453ac	-0.03230636
215	0x3df1dee1	0.11810089
216	0xbb6ce915	-0.003614967
217	0xbd5f7306	-0.054553054
218	0xbd5ccca0	-0.053906083
219	0xbdf82b01	-0.12117577
220	0x3e0db0d1	0.13836981
221	0xbd8ce965	-0.06880454
222	0xba857ec0	-0.0010184869
223	0x3d991ffc	0.07476804
224	0x3db0a4a5	0.086251535
225	0x3d1c703b	0.03819297
226	0xbb4ad12b	-0.0030947428
227	0xbd725719	-0.059165094
228	0xbda97677	-0.082745485
229	0xbd846c9c	-0.06466028
230	0x3e01cde1	0.12676193
231	0x3dd49e13	0.10381713
232	0x3e292781	0.16518976
233	0xbe0dd1bc	-0.13849539
234	0x3b6c8830	0.0036091916
235	0x3d9e5244	0.07730535
236	0x3e2bc123	0.16772895
237	0xbb2a7ce3	-0.002601438
238	0xbc84d3a1	-0.016214194
239	0x3e04c7f6	0.12966904
240	0xbd4b6269	-0.049654398
241	0x3cde3002	0.027122501
242	0xbd05429f	-0.032534238
243	0xbba49672	-0.0050228173
244	0xbcb7b5b6	-0.022425514
245	0x3c88465d	0.016635114
246	0x3df4ddaa	0.119563416
247	0xbd98addb	-0.07455035
248	0xbd8dc698	-0.069226444
249	0x3b0002d1	0.0019532929
250	0xbd214be9	-0.039379034
251	0xbe1d4d87	-0.15361606
252	0xbe4dda72	-0.20102862
253	0x3caec7af	0.021335451
254	0x3d30b004	0.04313661
255	0xbd7e1560	-0.062032104

fc.0.bias f4 [64]
0	0xbd04d9a5	-0.032434124
1	0xbe52dfb1	-0.20593144
2	0xbe541e10	-0.20714593
3	0xbe6e1136	-0.23248753
4	0xbe979482	-0.2960549
5	0xbdbebeff	-0.09313773
6	0xbd3c5686	-0.045980953
7	0xbee88d50	-0.45420313
8	0xbe32b81a	-0.17453042
9	0xbe31a10a	-0.17346588
10	0xbe56c8a2	-0.20974973
11	0xbeea0f81	-0.45714954
12	0xbf0b7c46	-0.544865
13	0xbf0d10cc	-0.55103755
14	0xbebd6f4b	-0.36998972
15	0xbf01cfa2	-0.5070745
16	0xbe809a52	-0.25117737
17	0xbd851498	-0.064980686
18	0xbe234435	-0.15943988
19	0xbe17ce7d	-0.14824863
20	0xbd4ead64	-0.050458327
21	0xbea6e238	-0.32594466
22	0xbde0ef08	-0.109830916
23	0xbe7dd1bd	-0.2478704
24	0xbe692266	-0.22767028
25	0xbeb93e91	-0.36180547
26	0xbeb0505e	-0.34436315
27	0x3d59c9b1	0.053170864
28	0xbe2c3c0d	-0.16819783
29	0xbe91a7de	-0.28448385
30	0x3ac2353e	0.0014816893
31	0xbd578764	-0.052619353
32	0xbe3b1833	-0.1827095
33	0xbd32cab5	-0.043650348
34	0xbe6e93ea	-0.23298612
35	0xbe4bbef9	-0.19897069
36	0xbe80363b	-0.25041375
37	0xbe9aa3db	-0.30203137
38	0xbf010fb1	-0.5041457
39	0xbe5e14da	-0.21687642
40	0xbdf99cc9	-0.121881075
41	0xbeaac346	-0.33352107
42	0xbe8f9691	-0.2804456
43	0xbee29539	-0.44254473
44	0xbe21d44e	-0.15803644
45	0xbe4b1d04	-0.19835287
46	0xbe3125de	-0.17299601
47	0xbe21ac7a	-0.15788451
48	0xbee875ce	-0.45402378
49	0xbe6db59f	-0.23213814
50	0xbe89dc28	-0.26925778
51	0xbe5cf292	-0.21576908
52	0xbe358909	-0.17728056
53	0xbe85db68	-0.26143956
54	0xbeaead6d	-0.34116688
55	0xbe8288bd	-0.25494948
56	0xbe6c4294	-0.23072273
57	0xbec6da4a	-0.38838416
58	0xbe820c8b	-0.25400195
59	0xbdb91f48	-0.090391695
60	0xbea639bc	-0.32465923
61	0xbe24e46a	-0.16102758
62	0xbeb880cc	-0.36035764
63	0xbdf1e9cf	-0.118121736

fc.3.weight f4 [32, 64]
0	0xbe6b7580	-0.22994041
1	0xbda2ac61	-0.07943035
2	0x3c0616fa	0.008184189
3	0x3e3726e2	0.17885926
4	0x3d973843	0.07383778
5	0x3b1a7e6d	0.002357389
6	0xbe8b13ee	-0.27163643
7	0x3d59ceba	0.053175665
8	0x3df00412	0.11719526
9	0x3e5420d5	0.2071565
10	0xbe1fa339	-0.15589608
11	0x3e0d1844	0.13778788
12	0x3e7fb463	0.24971156
13	0x3e076cd0	0.13225102
14	0x3a1f10f3	0.0006067894
15	0x3e3e3289	0.18573965
16	0xbe785156	-0.24249777
17	0xbec77f59	-0.38964346
18	0xbebde753	-0.3709055
19	0xbe943b54	-0.28951514
20	0xbd9b493b	-0.07582327
21	0xbdad0cd7	-0.08449715
22	0x3dfda2c3	0.1238456
23	0xbe7a1aab	-0.24424236
24	0xbd8f9d50	-0.07012427
25	0xbd011e0f	-0.031522807
26	0xbdc580d1	-0.096437104
27	0x3d6d1f2a	0.05789105
28	0x3db96124	0.09051731
29	0xbe916773	-0.28399238
30	0xbd1e527b	-0.03865288
31	0x3d2dd436	0.04243871
32	0xbe614fce	-0.220031
33	0x3db9c73e	0.090712056
34	0x3e10c071	0.1413591
35	0x3d9405be	0.07227658
36	0xbe86caf7	-0.26326725
37	0xbd018266	-0.0316185
38	0x3d9c0a56	0.07619159
39	0x3d4daa8f	0.050211485
40	0xbe583e42	-0.211175
41	0x3dc08e30	0.0940212
42	0x3d708362	0.058719046
43	0x3e775616	0.24153933
44	0x3d28d419	0.041217897
45	0x3d273ff4	0.040832475
46	0xbe99b183	-0.30018243
47	0xbe1ca8b4	-0.1529873
48	0x3dd7f7f7	0.105453424
49	0xbe49cb92	-0.19706562
50	0xbd6017c0	-0.05471015
51	0xbdf1c623	-0.1180537
52	0xbd04c948	-0.03241852
53	0x3e1e532a	0.15461412
54	0xbc0582f0	-0.008148894
55	0xbd03bc8e	-0.03216224
56	0xbd582b5b	-0.052775722
57	0x3d194031	0.037414733
58	0xbdd3aead	-0.10336051
59	0x3c39665b	0.011315907
60	0x3d6e9eb6	0.058256827
61	0xbe99a712	-0.30010277
62	0x3e8b7b94	0.2724272
63	0x3d9b0721	0.07569719
64	0x3d9fb0f0	0.0779742
65	0x3d4204c0	0.04736781
66	0xbe61f9fa	-0.22068015
67	0xbdcae07c	-0.09906098
68	0xbdf62c2b	-0.12020143
69	0xbe2399ad	-0.15976591
70	0x3e24b92e	0.16086265
71	0xbd791452	-0.060810395
72	0xbd0cc515	-0.03436764
73	0xbd7c3aa7	-0.061579373
74	0x3d2266e5	0.03964891
75	0xbd77224f	-0.060335454
76	0xbdb5b2ed	-0.08872018
77	0xbe7b3609	-0.24532332
78	0x3e735747	0.23763762
79	0xbddf7bab	-0.1091226
80	0x3e364b06	0.17802057
81	0x3e258054	0.16162235
82	0x3e5fd79d	0.21859594
83	0x3e816056	0.2526881
84	0xbe4164da	-0.18886128
85	0x3e3d114d	0.18463631
86	0x3dfad4f2	0.12247647
87	0x3ec45a63	0.3835021
88	0xbe30173d	-0.17196365
89	0xbb63ab56	-0.0034739575
90	0x3e987c7f	0.29782483
91	0xbdab7497	-0.08371847
92	0x3d83b065	0.06430129
93	0x3daebcf0	0.08532131
94	0x3e12ff43	0.14355187
95	0xbeab3e9f	-0.33446214
96	0x3e83f62f	0.2577376
97	0x3e050206	0.12989053
98	0xbdc5f8b4	-0.09666577
99	0x3d9527e3	0.072829984
100	0x3e8a8958	0.2705791
101	0xbd1fc97f	-0.03901052
102	0xbe3695c1	-0.17830564
103	0x3e22e027	0.1590582
104	0xbdba03e3	-0.090827726
105	0xbdef5e49	-0.11687905
106	0xbdf76f63	-0.12081792
107	0xbd6cddf6	-0.057828866
108	0xbd4b5046	-0.0496371
109	0x3dbadcc0	0.09124136
110	0x3d032c03	0.032024395
111	0x3e3d843a	0.18507472
112	0x3dd8d790	0.1058799
113	0x3de02140	0.10943842
114	0x3e89e611	0.2693334
115	0x3d7a3810	0.06108862
116	0xbcc9b51e	-0.024622496
117	0xbe626542	-0.2210894
118	0xbe7865fd	-0.24257655
119	0x3e1540b9	0.14575471
120	0x3dc2e996	0.09517209
121	0x3ccdad7a	0.025107134
122	0xbd8a2a09	-0.06746299
123	0x3cc48246	0.0239879
124	0xbdef5f95	-0.11688153
125	0xbc4aeac3	-0.012385073
126	0xbe3a355d	-0.18184419
127	0x3e5970c6	0.21234426
128	0xbd9aca70	-0.07558143
129	0x3d55cdc3	0.052198183
130	0x3dbee6ab	0.0932134
131	0xbd3fb5f3	-0.04680438
132	0x3c638242	0.013886036
133	0xbe8c525b	-0.27406582
134	0x3e57824a	0.21045795
135	0xbd65a7ad	-0.05606811
136	0x3c9a90d9	0.018867897
137	0x3d0bd4a5	0.03413834
138	0xbdb21b98	-0.08696669
139	0x3e558c3a	0.20854273
140	0x3e841862	0.25799853
141	0xbd92fb40	-0.071768284
142	0xbdc1c8a1	-0.09462095
143	0xbd4e23eb	-0.050327223
144	0xbe0f9663	-0.14022212
145	0x3d9150e7	0.07095509
146	0xbd0c73cd	-0.034290124
147	0xbc8b56fa	-0.017009247
148	0xbe2667f9	-0.162506
149	0x3c98c5b1	0.018648954
150	0x3e530c83	0.20610242
151	0x3d3b6217	0.045747843
152	0xbea5b62e	-0.32365555
153	0xbe2fe6e6	-0.17177925
154	0x3e2678c1	0.16257001
155	0xbdc7c285	-0.097538985
156	0xbdfcf7a5	-0.12351922
157	0xbe29567e	-0.165369
158	0x3de8942f	0.11356389
159	0xbe105ca1	-0.14097835
160	0xbc0bb705	-0.008527522
161	0xbdf3c989	-0.11903674
162	0xbe2c92cb	-0.16852872
163	0x3d2fcde4	0.042920962
164	0x3d900cee	0.07033716
165	0xbdc90c21	-0.098167665
166	0x3e2f3019	0.17108192
167	0x3e566b8a	0.2093946
168	0x3ddb2fa0	0.10702443
169	0xbdcd1d96	-0.10015409
170	0xbea81238	-0.328264
171	0x3c33ae9d	0.010966924
172	0xbcd33c49	-0.025785582
173	0xbdd2f21e	-0.103000864
174	0xbd480a00	-0.04883766
175	0xbd6928b5	-0.056923587
176	0x3e8e30c5	0.27771583
177	0xbda651d6	-0.08121078
178	0x3d74d339	0.05977175
179	0xbc54b60b	-0.012982856
180	0x3afd7765	0.001933795
181	0x3c913d56	0.017729443
182	0xbd8aaaa7	-0.067708306
183	0xbe08f9d6	-0.13376555
184	0xbdafa3b4	-0.08576146
185	0xbde07f58	-0.10961789
186	0x3d46024e	0.04834204
187	0xbd37de0d	-0.0448895
188	0x3e230182	0.15918544
189	0x3ca8c612	0.02060226
190	0xbe031f47	-0.128049
191	0xbd7a94b8	-0.061176986
192	0x3ea5de68	0.32396245
193	0x3e0c435f	0.13697575
194	0xbc044e10	-0.008075252
195	0x3e94377e	0.28948587
196	0x3ce52245	0.027970443
197	0xbc9da933	-0.01924572
198	0x3dd4aab6	0.10384123
199	0x3c7af1c5	0.015316431
200	0xbe309852	-0.17245606
201	0xbc95ded2	-0.018294726
202	0x3e9b79f0	0.30366468
203	0xbe01c346	-0.12672147
204	0xbed85f80	-0.4226036
205	0xbdf3f04a	-0.11911066
206	0xbe38d5e1	-0.18050338
207	0xbd862b3f	-0.06551217
208	0x3e7ad64c	0.2449581
209	0x3d6869c7	0.056741502
210	0xbd7312c7	-0.05934408
211	0xbd5e2154	-0.054231003
212	0x3e19a511	0.15004374
213	0x3e6647c5	0.22488315
214	0x3d5f2206	0.054475807
215	0x3e311027	0.17291318
216	0x3dbc6f44	0.0920091
217	0x3dcdd29f	0.100499384
218	0x3b8ee1fe	0.0043604365
219	0x3e3ac5e7	0.18239556
220	0x3c71478a	0.014726529
221	0x3ddcb4dc	0.10776684
222	0x3db1a129	0.08673317
223	0x3e37e294	0.17957526
224	0x3dbaaa7b	0.09114548
225	0x3e465cb0	0.19371295
226	0x3e1fb976	0.15598091
227	0x3e3e0024	0.18554741
228	0x3b172958	0.0023065414
229	0x3d23c26d	0.03998034
230	0xbe157e4f	-0.14598964
231	0xbe8aa4dc	-0.27078903
232	0xbd9575d3	-0.07297864
233	0xbe1d744b	-0.15376393
234	0x3da6b64e	0.081402406
235	0xbdce693f	-0.10078668
236	0x3e7bb4d5	0.245807
237	0x3e1404a9	0.14454903
238	0x3ebd4709	0.36968258
239	0x3d8331d5	0.06405989
240	0xbe91cc2b	-0.2847608
241	0x3e171aa4	0.14756256
242	0xbe129c7a	-0.14317504
243	0x3e3784cc	0.17921752
244	0x3da554ae	0.08072792
245	0xbe39a1ab	-0.18128078
246	0x3e788e7f	0.24273108
247	0xbe36c98b	-0.1785032
248	0x3e4c53bd	0.19953819
249	0x3d9940b1	0.07483042
250	0x3e24f095	0.161074
251	0xbdd61616	-0.10453431
252	0x3e624c69	0.2209946
253	0x3e5fb27a	0.21845427
254	0x3cd19dfd	0.02558803
255	0x3e1f7c86	0.15574846

fc.3.bias f4 [32]
0	0xbc7ffb79	-0.015623921
1	0xbe1f9e04	-0.15587622
2	0x3b2f1679	0.0026716276
3	0x3e3fe8bc	0.18741125
4	0xbe9804b6	-0.29691094
5	0x3e93bb1a	0.28853685
6	0xbe77e9ff	-0.24210356
7	0x3ed24906	0.41071337
8	0xbef71bdd	-0.48263445
9	0xbddb238b	-0.10700139
10	0xbd964e8d	-0.07339201
11	0xbe822801	-0.25421146
12	0xbd998961	-0.07496906
13	0x3d963c95	0.07335774
14	0x3e887030	0.26648092
15	0xbe24922e	-0.16071388
16	0xbe84ea84	-0.2596017
17	0x3ede5c69	0.43429878
18	0x3e79e71a	0.24404564
19	0xbebf0b93	-0.37313518
20	0x3dbc83e9	0.09204847
21	0x3c931d60	0.017958343
22	0x3eb8242d	0.359651
23	0xbd7c8b86	-0.061656497
24	0x3dbf67bd	0.093459584
25	0xbdc709fb	-0.097187005
26	0x3f1a72fa	0.6033169
27	0x3e01aaf3	0.12662868
28	0x3e910ef1	0.28331712
29	0x3ddd4599	0.1080429
30	0xbda1f804	-0.07908633
31	0xbd5b53b0	-0.053546607

linear.0.weight f4 [16, 32]
0	0xbd60cc3a	-0.054882266
1	0x3e0e3875	0.13888724
2	0xbdb0b471	-0.086281665
3	0x3ea9c332	0.33156735
4	0xbe303901	-0.17209245
5	0x3e5c9a16	0.21543154
6	0xbe04ff71	-0.12988068
7	0x3e94275c	0.2893628
8	0xbea56b00	-0.32308197
9	0xbd57b4c3	-0.052662622
10	0xbec7daf0	-0.39034224
11	0xbd426a28	-0.04746452
12	0x3c8a2cff	0.016867159
13	0x3e875f38	0.26439834
14	0x3d294b4e	0.04133158
15	0xbd0095b8	-0.031392783
16	0x3d2d2b89	0.042277846
17	0x3b2ee8ae	0.002668898
18	0xbe4cb8ce	-0.19992372
19	0xbde5be0e	-0.11217891
20	0x3e7918cb	0.24325864
21	0xbea5e9e4	-0.32405007
22	0x3e6d0f2e	0.23150322
23	0xbe2b81cb	-0.16748731
24	0x3edfd333	0.4371582
25	0x3e50273b	0.20327465
26	0x3e87f413	0.265534
27	0x3e215db7	0.15758406
28	0xbe234ed6	-0.15948042
29	0xbdbc92e9	-0.092077084
30	0x3d670fa6	0.056411408
31	0x3e553cd9	0.20823993
32	0x3caf19b1	0.021374555
33	0x3e8d1e21	0.2756205
34	0x3e84fb33	0.259729
35	0x3c9e00ac	0.01928743
36	0xbd1b3866	-0.037895583
37	0x3eb11638	0.34587264
38	0xbe916320	-0.2839594
39	0x3e266510	0.1624949
40	0xbd1bd004	-0.038040176
41	0x3d6419e4	0.055688754
42	0x3d95d922	0.073168054
43	0x3ced579e	0.028972443
44	0x3df2d023	0.11856105
45	0xbe5e5151	-0.21710707
46	0xbe2c43c8	-0.16822731
47	0xbe3541a7	-0.17700826
48	0x3d6d7b4d	0.057978917
49	0x3d064163	0.0327772
50	0xbe4191b7	-0.18903242
51	0xbeb599a8	-0.35468793
52	0xbda7ce76	-0.08193676
53	0xbf06e9ae	-0.52700317
54	0xbe96d1c5	-0.29456916
55	0xbddeae78	-0.10873121
56	0x3d0e4650	0.034735024
57	0x3cc7510c	0.024330638
58	0x3dbff7f2	0.09373464
59	0x3cc6b781	0.024257423
60	0xbf243b20	-0.6415272
61	0xbddab0e1	-0.10678268
62	0x3e63985e	0.22226092
63	0x3d273ee5	0.040831465
64	0x3e3c81d7	0.18408905
65	0xbc6254f0	-0.013814196
66	0xbd936cd2	-0.0719849
67	0xbb0052de	-0.0019580643
68	0x3d9e4b7d	0.07729242
69	0x3d782a17	0.060587015
70	0x3dbfca76	0.09364788
71	0xbcc0fa68	-0.023556903
72	0x3d9633f0	0.07334125
73	0x3e1b28d9	0.15152301
74	0x3de6cb39	0.112692304
75	0x3e04f615	0.12984498
76	0x3dcb7b60	0.09935641
77	0x3d9c8dd1	0.07644237
78	0xba93665b	-0.0011245714
79	0x3e3687aa	0.17825189
80	0xbd555ab5	-0.052088458
81	0xbe114fe4	-0.14190632
82	0xbcd4c2f6	-0.02597187
83	0x3d9be1f8	0.076114595
84	0x3c97369c	0.018458657
85	0xbd6457a6	-0.05574765
86	0x3c7dd7a2	0.015493305
87	0xbd390dda	-0.045179226
88	0x3c4d30f4	0.012523878
89	0x3c4dc456	0.012559017
90	0xbb249812	-0.0025115055
91	0x3e9b16b7	0.30290768
92	0x3b625bf0	0.0034539662
93	0x3de8ae4a	0.11361368
94	0x3d955ef6	0.07293503
95	0xbd0ab288	-0.033861667
96	0xbe9f0411	-0.3105779
97	0xbd50cc9f	-0.050976392
98	0xbdc9c32c	-0.09851679
99	0x3ee866ac	0.45390832
100	0xbe0570c8	-0.13031304
101	0xbd9f3836	-0.07774393
102	0x3dd5bc25	0.10436276
103	0xbdca82cc	-0.09888229
104	0xbe8d77d8	-0.27630496
105	0x3d198d2f	0.03748816
106	0x3d9957d4	0.07487455
107	0xbe3d4120	-0.18481874
108	0xbe60049c	-0.21876758
109	0x3e5603df	0.20899914
110	0x3e90671f	0.28203675
111	0x3e1655ac	0.14681119
112	0xbdd1a235	-0.10236017
113	0xbe6e406e	-0.23266765
114	0xba8b6d6c	-0.0010637469
115	0x3eb30086	0.34961337
116	0x3eb70a5d	0.35750094
117	0x3e93a59d	0.2883729
118	0x3d97f9fe	0.07420729
119	0x3de57299	0.112034984
120	0xbe208bfd	-0.15678401
121	0x3e267e12	0.1625903
122	0x3e7727ea	0.2413632
123	0x3e0c42fc	0.13697428
124	0x3e078127	0.13232861
125	0xbd0cdc69	-0.034389887
126	0x3e936ccf	0.28793952
127	0x3dd08bf4	0.10182944
128	0x3dbbd49c	0.091714114
129	0xbd0ab484	-0.03386356
130	0xbdaec18d	-0.08533011
131	0xbea90191	-0.33009008
132	0x3d54e84f	0.05197936
133	0xbe9bfe7a	-0.30467588
134	0x3e035f50	0.12829328
135	0xbe2bcfc1	-0.1677847
136	0x3e16221b	0.14661448
137	0x3de36cbb	0.11104723
138	0x3e9bb3a0	0.3041048
139	0x3d2a9125	0.041642327
140	0xbcc294db	-0.02375262
141	0xbe91a1f5	-0.28443876
142	0xbcd1d1ad	-0.025612677
143	0x3c105797	0.008809946
144	0x3e64a146	0.22327146
145	0x3d38dff4	0.045135453
146	0x3e8298ec	0.25507295
147	0xbe019a46	-0.12656507
148	0xbdf22e19	-0.11825199
149	0x3ed63aab	0.41841635
150	0x3dabda19	0.08391208
151	0x3e51b5ba	0.2047948
152	0xbe235c9a	-0.15953293
153	0xbe02ef7c	-0.12786669
154	0xbdccc372	-0.09998216
155	0xbdc0b600	-0.09409714
156	0x3ead6b99	0.33871153
157	0x3e2ccf04	0.16875845
158	0xbc953126	-0.018211912
159	0x3c1a52ad	0.0094191255
160	0x3d061891	0.032738272
161	0x3d15b048	0.036545068
162	0x3e1b5a2a	0.15171114
163	0xbde6316c	-0.11239895
164	0xbd9a32e8	-0.07529241
165	0xbe7f41ef	-0.24927495
166	0x3d70c19e	0.058778398
167	0x3c067601	0.008206845
168	0x3e8f6fc5	0.2801496
169	0x3d51ff13	0.05126865
170	0x3ea4fef7	0.32225773
171	0x3d40bdd5	0.047056038
172	0xbe1362a2	-0.14393094
173	0x3dadbc91	0.08483232
174	0x3e61a1a8	0.22034323
175	0x3ea0eecb	0.31432185
176	0x3e08b363	0.1334968
177	0xbe815bde	-0.25265402
178	0x3ecd25e9	0.40067986
179	0xbc6ee4c6	-0.014580911
180	0x3e77d391	0.242018
181	0x3e6c4694	0.23073798
182	0x3c81bc9b	0.015837004
183	0x3e2e1347	0.16999541
184	0xbe9472bf	-0.28993794
185	0xbdc9c349	-0.09851701
186	0xbc888d11	-0.016668828
187	0xbd88cd94	-0.06679836
188	0x3e826416	0.25466985
189	0x3e87cbe4	0.26522744
190	0x3e9024bc	0.28153026
191	0x3b9198c0	0.004443258
192	0xbe61f590	-0.22066331
193	0x3dcd6531	0.10029066
194	0x3c14e954	0.009088833
195	0xbdb0ccae	-0.086327896
196	0x3d057785	0.032584686
197	0xbd92545b	-0.07144996
198	0xbe078d33	-0.13237457
199	0xbdb32a14	-0.0874826
200	0xbd8cb5dd	-0.06870625
201	0xbd49e75f	-0.04929292
202	0xbca47c22	-0.020078722
203	0xbe125d5e	-0.1429343
204	0xbe172d5b	-0.14763395
205	0xbd82d05d	-0.063873984
206	0x3cc3aa36	0.023884874
207	0xbe022246	-0.12708387
208	0x3d42b183	0.04753257
209	0x3cbc3b8e	0.022977617
210	0xbdfabe73	-0.122433566
211	0x3dbdf6ff	0.092756264
212	0x3d56a593	0.052403998
213	0xbd3ce436	-0.046116076
214	0xbb9e5173	-0.004831487
215	0x3ddae20f	0.106876485
216	0xbdb7a9ec	-0.08967957
217	0x3da1acac	0.07894263
218	0x3ce83382	0.028344873
219	0xbe7bc280	-0.24585915
220	0xbd796c8f	-0.060894545
221	0xbcdafe9e	-0.026732739
222	0x3d1bee04	0.038068786
223	0xbcb48ab8	-0.022038803
224	0xbe713f07	-0.235592
225	0x3eaf3b53	0.34224948
226	0x3d8c030c	0.06836519
227	0x3d039e0f	0.03213316
228	0x3c8b088e	0.016971853
229	0x3dc3c3d1	0.095588334
230	0xbe772018	-0.24133337
231	0xbda93fc6	-0.08264117
232	0xbdb16dbb	-0.086635076
233	0x3dc8fb79	0.098135896
234	0x3e032a14	0.1280902
235	0xbd413d69	-0.047177706
236	0xbecdea79	-0.4021795
237	0x3da45b54	0.08025232
238	0xbc814aba	-0.015782703
239	0xbbcde7d7	-0.006283741
240	0x3e94cdb5	0.29063192
241	0x3d7c503c	0.061599955
242	0xbd2e7c41	-0.042598967
243	0x3d4d1155	0.050065357
244	0x3d1cacb5	0.038250644
245	0x3e118fcf	0.14215015
246	0xbe5a1eae	-0.21300766
247	0x3e30f009	0.17279066
248	0x3e7e3a22	0.24826863
249	0x3da9af94	0.08285442
250	0x3d0e9019	0.03480539
251	0xbe69ff2a	-0.22851244
252	0xbdd429c0	-0.10359526
253	0xbe18d177	-0.14923654
254	0x3c917c3a	0.017759431
255	0x3c9c6d58	0.019095108

linear.0.bias f4 [16]
0	0x3f65f60a	0.8982855
1	0x3db81a17	0.08989351
2	0xbe0ecae8	-0.1394459
3	0xbeb45699	-0.3522232
4	0xbeb31067	-0.34973451
5	0xbebff61b	-0.3749245
6	0x3ddd5fca	0.10809286
7	0x3e09e647	0.1346675
8	0xbf4a8cdb	-0.7912118
9	0xbd055f09	-0.032561336
10	0x3dda093f	0.10646295
11	0x3d0f79bf	0.035028215
12	0xbee77e5d	-0.45213595
13	0xbe7d55c2	-0.24739745
14	0x3eb1f1aa	0.34754688
15	0xbea41100	-0.3204422

out.0.weight f4 [1, 16]
0	0x3f64ab23	0.89323634
1	0x3f2ff05f	0.6872615
2	0xbfb37cf1	-1.4022504
3	0x3f005788	0.5013356
4	0x3f2988f8	0.6622462
5	0x3eccd4df	0.40006158
6	0xbfacebd7	-1.3509473
7	0xbfbf6935	-1.4953982
8	0xbfbe109d	-1.484882
9	0x3efc70df	0.49304864
10	0xbfa3bb3f	-1.2791518
11	0xbfced335	-1.6158205
12	0xbfab7d19	-1.3397552
13	0x3ea364ea	0.3191293
14	0x3f0699e4	0.5257857
15	0xbfb37f0d	-1.4023148
