models_checkpoints/model_test2.pt (torch_old, 45160 bytes, 7 tensors)

fc.0.weight f4 [64, 128]
00000000: 2883 05be 8bb7 c4bc d30c 243e 6243 a9bc
00000010: 761d aa3d 39e7 9f3d e578 8f3d feae e7bc
00000020: ed72 10be 7a08 08be 2b83 47bd 0233 163f
00000030: bf83 dd3c fbca 9d3c 60aa 853d 0682 99bd
00000040: 4722 80bc 711b 46bd 1e55 d2bd 04b4 483e
00000050: 4e15 1bbe 8da3 31be b5d9 583d 1558 da3d
00000060: 3069 1cbe 9897 7ab8 89fc 86be 8c4c 8dbe
00000070: 24af e6bd d863 52bb 001e 4fb9 f955 30bd
00000080: b1b8 4c3c 9ee1 e83c f25a 993d 0cd4 b93c
00000090: c908 693d 1941 ae3d 02fa 003e 7b2b 5fbe
000000a0: 0905 c93d 5c8b 183c bf85 5a3c eb0c 473d
000000b0: 0e95 003e 24d9 2cbd 30c7 32bd f77b 79be
000000c0: 3462 94bd e068 193e aea3 c33d b4b7 5d3d
000000d0: 9fba a6bd ddcd af3d 3f9f adbd 51a9 b03d
000000e0: f014 b13b 78b1 fbbd eeb7 ca3c 2a4e bd3d
000000f0: 71ba 163b 3d7f 4bbe 051c 2dbe 101f 49bc
00000100: 0a84 e23e 0973 093f e826 053d 7ed2 733d
00000110: 7bee 443c 4cbf 433c 0677 553c d936 d63e
00000120: 07a1 173f 5525 03be 7ba2 d23e 4d9b 2c3f
00000130: 69b8 c6bd 3ba3 96bd 2a48 7c3d 5d40 8c3d
00000140: a71e 363d 352b 9fbd b3f5 06be cc0c 17bb
00000150: 2450 743d d0cb 37be f03f 083e a681 933b
00000160: a89c 173c 19dd fbbd de47 5a3d c147 9a3d
00000170: 763f 9cbc cb10 153d 115e 9cbd d634 ad3d
00000180: 805e 65bd 1099 a9bc 83bc 0d3d 8ddd e23b
00000190: 00e1 7b3d 8716 4bbd 56bb d93c a03c 99bd
000001a0: 7ee7 c9bd 122e 043d 551e 913e aad4 7fbd
000001b0: ab23 173e 6fee 6bbe 5cbe f73d 83af 32bd
000001c0: afd2 0ebe e4c0 1a3e 08cd 0a3d 2940 183d
000001d0: 3897 0ebc 8bb8 60bd 8391 4dbd b6d9 3a3d
000001e0: a18f 83be f4fc cabd aed9 1e3e a884 42bd
000001f0: f309 213c b769 4fbe 3ef9 c1bd 8b5f 31be
00000200: 8e57 4cbe 4a3a 44be 367f fe3d 20f3 c7bd
00000210: 3562 f13d 1a34 3fbe bd20 013e c6f3 8ebe
00000220: d227 5cbe 2879 2a3d 9213 b4bd c504 c83e
00000230: ea70 05bd 4940 d4bd 5f3c d9bd ca37 223d
00000240: b112 98bd 6360 1d3d 9165 12be 91e0 823d
00000250: a74a 14bd 46c3 85bd dc82 2bbc 630c 063e
00000260: 0cbe c73d a58c 243e c92c 7b3b ede3 b6bc
00000270: e746 58bd db9e aebd 8053 da3b 16fa e9bd
00000280: c480 99bc f7c4 473d c01c 553d a62a f4bd
00000290: d2b5 41be 5596 363c 8675 fa3c 7946 dd3d
000002a0: 6aa7 e63c 3d5f f33c c993 2fbe e5bc 463e
000002b0: 72f5 97bd 4f08 223d c539 b2bd f10c 04bc
000002c0: 8416 f83d 52a7 28bd 5978 65bd 3908 473d
000002d0: ee6b a8bc 26ed 7e3c e981 023e 6c29 aebb
000002e0: 8c8c 263d 2beb a33c ab01 2abe 1dcb aebd
000002f0: 5dad 23bb 49a7 99be d392 67be 6616 8b3d
00000300: 7ce0 b83e 9608 d63e 1f0a 253d a226 e4bd
00000310: 2d61 263e 8bc1 993c 4835 6dbe 4b5e 083f
00000320: cf5b e33e e355 733d b4ef ac3e 82d7 f23e
00000330: c27d c73b 68c1 42be 6c73 29bd 8a1c abbd
00000340: bf42 e63d 94dc a4bd ec6b a23d 8b13 3e3e
00000350: b5d8 4bbe 5889 873d 021f 27bd afc4 803d
00000360: 07a0 92bd a166 87bd 6900 e4bd 6c77 51bd
00000370: 472b 8cbe a14e 8bbe c01b 7cbb 3feb ef3d
00000380: e89d a43d 2eb8 a73d 49e8 503d fec5 d4bd
00000390: 00b8 173d 4d52 093e cc09 283e a56b 35be
000003a0: dcd0 9b3d 1a7f 8abd de6c 5e3e 8748 3ebe
000003b0: d18f 0cbe 982c 783e 0fbd 86bd 68a3 d8bd
000003c0: 5f5f 33be fff7 9a3d 1433 593e a497 b7bd
000003d0: 0da6 123c f5e6 78bc 80ba 1a3d b01c 59be
000003e0: b121 44bd aa06 a53d e19c 21bd 5be2 91bc
000003f0: 96d2 a73d 4dd2 7dbd 7f6e f6bd e5e3 3f3e
-0.13038313 -0.024013301 0.16020517 -0.020662013 0.083064005 0.07807774 0.07005481 -0.028281685
-0.1410634 -0.13284484 -0.048709076 0.5867158 0.02704036 0.019261828 0.06526637 -0.07495503
-0.015641345 -0.048366014 -0.10270141 0.1959992 -0.15144846 -0.17347546 0.052941997 0.106613316
-0.15274501 -5.9745827e-05 -0.26364544 -0.27597463 -0.11263874 -0.0032102969 -0.00019752234 -0.04305074
0.012495206 0.028427895 0.074880496 0.02268412 0.056893144 0.0850851 0.1259537 -0.2179393
0.098154135 0.00931057 0.013337552 0.048596304 0.1255686 -0.04219927 -0.04364699 -0.24363695
-0.07245293 0.14981413 0.09552704 0.05413027 -0.08141064 0.08584187 -0.084776394 0.086260445
0.0054041073 -0.12289709 0.024745908 0.09243424 0.0022999311 -0.19872756 -0.1690522 -0.012275472
0.44241363 0.53691155 0.032507807 0.059526913 0.012019749 0.011947464 0.013028866 0.4183872
0.59230083 -0.1280721 0.41139588 0.6742447 -0.09703142 -0.073553525 0.06159226 0.06848214
0.044462826 -0.07771913 -0.13179664 -0.00230484 0.05964674 -0.17948842 0.1330564 0.0045015393
0.009253658 -0.122980304 0.053291194 0.07533217 -0.01907323 0.03639297 -0.07635129 0.08457343
-0.055998325 -0.020702869 0.034603607 0.0069233836 0.061493874 -0.04958203 0.026578587 -0.074822664
-0.09858607 0.0322705 0.28343454 -0.06245867 0.147597 -0.23040174 0.12096855 -0.043624412
-0.13947557 0.15112644 0.03388694 0.037170563 -0.008703046 -0.054863494 -0.0501876 0.04561778
-0.25695518 -0.09911528 0.15512726 -0.047489792 0.009829032 -0.20255171 -0.09471367 -0.17321603
-0.19955274 -0.1916286 0.12426607 -0.09763169 0.1178631 -0.18672219 0.12610145 -0.2792036
-0.21499565 0.04161945 -0.08792795 0.3906614 -0.032578386 -0.10363824 -0.10607218 0.039603986
-0.0742544 0.038422 -0.14296557 0.06390489 -0.036204007 -0.06531386 -0.010468211 0.13090663
0.097530454 0.16069277 0.0038326255 -0.02232548 -0.052801993 -0.08526393 0.006662786 -0.11424653
-0.018738158 0.048771825 0.05202937 -0.11922197 -0.18917015 0.01114424 0.030573618 0.10804457
0.028156001 0.0297085 -0.1714622 0.19407995 -0.07419862 0.039558705 -0.08702425 -0.008059726
0.121136695 -0.041175194 -0.056022976 0.048591826 -0.020559277 0.01555947 0.1274487 -0.0053149965
0.04066138 0.020009598 -0.16602199 -0.085348345 -0.0024975159 -0.3001044 -0.22614603 0.067913815
0.36108768 0.41803426 0.040292855 -0.11140181 0.16248007 0.018769046 -0.23164856 0.5326888
0.44405982 0.05940808 0.3377663 0.47430044 0.0060879895 -0.19019091 -0.04136984 -0.08355053
0.112431996 -0.080498844 0.07930741 0.18562143 -0.19906886 0.06617993 -0.040801056 0.062875144
-0.07159429 -0.06611372 -0.11132891 -0.05113928 -0.27376768 -0.27208427 -0.0038468689 0.117147915
0.08037931 0.08189426 0.051002774 -0.103893265 0.03704071 0.13410302 0.16409987 -0.17716844
0.07608196 -0.06762524 0.21721217 -0.18582354 -0.13726737 0.24235761 -0.06579029 -0.10578042
-0.1751685 0.07566833 0.21210891 -0.0896447 0.008950722 -0.015191783 0.037775517 -0.2120235
-0.047883693 0.08057912 -0.039456252 -0.01780813 0.08194463 -0.061968137 -0.12032794 0.18739279

fc.0.bias f4 [64]
00000000: b2d0 e7be 1458 c0be d5af 12be fc2b 6abe
00000010: c9a4 45be 9847 b3be 0d73 cabe 300e f7be
00000020: b7f5 88be 1bfb efbd e317 81be 93d3 58be
00000030: b433 a5be 1f36 8abe 68f0 0abd 8e43 d8be
00000040: 4fa2 0abe 2ea3 b5be 0c8a e6be 557b 93be
00000050: e68d 9bbe cad1 29be 994f 71be e6b2 4dbe
00000060: 8e0a 75be ad99 2dbd 5294 00bf aa3a f4be
00000070: 65c9 bdbd 12db c6be ba2e 80be 746b d9bd
00000080: ff0e 4abe 266f 39be 7030 c9bd 1112 52be
00000090: c6fc 10bf fe99 ddbe 9e1f 2dbe e21b c0be
000000a0: 708b b7be f4bd 39be b29b bf3c 2c68 79bc
000000b0: 217a 91be 968b 12be 32e9 1ebe 6360 2ebe
000000c0: dc61 94be 0649 74be 48be 9ebe 542b c1bd
000000d0: ccf4 80be 8764 9dbe 5983 a7be 788b 97be
000000e0: 5971 e5be 4d94 97be 7bd1 16bd 7a72 3e3e
000000f0: a4f4 38be 9be2 9fbe fc34 77be 12b8 93be
-0.4527641 -0.37567198 -0.14324887 -0.22868341 -0.19301142 -0.3501556 -0.39540902 -0.48253012
-0.26749966 -0.117178164 -0.25213537 -0.21174459 -0.3226601 -0.26994416 -0.033920676 -0.4223904
-0.13538478 -0.3547606 -0.45027196 -0.28805032 -0.30381697 -0.16583934 -0.2356552 -0.20087776
-0.23929808 -0.042382885 -0.5022632 -0.47701007 -0.092669286 -0.38839012 -0.2503565 -0.10616198
-0.19732283 -0.18108806 -0.09823692 -0.20514704 -0.566357 -0.4328155 -0.16906592 -0.37521273
-0.3584857 -0.18138868 0.023389671 -0.01522259 -0.2841349 -0.1431106 -0.15518644 -0.17028956
-0.2898091 -0.23855981 -0.31004548 -0.09432092 -0.25186765 -0.3074076 -0.32717398 -0.29598594
-0.4481304 -0.29605332 -0.03682087 0.18598357 -0.18062073 -0.31227574 -0.24141306 -0.28851372

fc.3.weight f4 [32, 64]
00000000: f646 4d3d 91a7 aa3e 474d 94bd bf86 9dbd
00000010: cf81 2dbe 36ab 55be 66a7 7c3c e4f7 583e
00000020: af7d 9bbc 89e2 babc f738 7f3d 818a d43d
00000030: 2f33 c43d fed4 583e ee88 eebd e9bf a13c
00000040: 3439 813e 0e58 e93c c47f 113c be89 b3be
00000050: af01 10be c56d 9abe c096 963d b538 ba3d
00000060: 8848 063e 47e9 54bd 17de 1e3e a5cc 123d
00000070: dbbb 04be eb52 103e 785c 16be 6b99 d4be
00000080: ff9e 8c3d f3eb 343e 00f3 6c3e ce83 9b3d
00000090: 9399 2b3e c6c4 6e3d bfc6 a0be 43f9 34be
000000a0: fc9f 53bd 283f 72be 96d5 5a3d 2c5d 2bbe
000000b0: eaf6 f33d 4c4e 29be d804 debc 3ead 97bd
000000c0: c826 b33d ebbb 053e 7367 af3e fe51 fe3d
000000d0: 6c99 633d 5288 363d 39b4 d23d 670b 7d3e
000000e0: 16d6 22bd 20e6 073e 0e9e 2cbe 38f1 cdbe
000000f0: 9f0c 4e3c 3815 f63d 3801 3fbe e2ca 32be
00000100: b70d 4abe e0a0 cb3d 3f5e 843e 7517 323e
00000110: 97cc ba3d 31e1 19be bcd1 e23c 5360 7dbe
00000120: 0be8 0bbe ac4e 873e c0da 9ebd 1a9a 663e
00000130: 2c36 30be d9c2 7b3e 815a c0be 8e69 69be
00000140: 9c73 a43e 4ba0 d2bd 505d 6a3e bc9b 0abe
00000150: ceb0 15be 75f8 1ebd 5789 cabd b640 ebbd
00000160: 64cb 05be 2151 36bc 75ba 073e a940 6abe
00000170: c05b 2cbe cb5a 833c 6193 183e fd3b b73d
00000180: ead2 15be bb63 dfbe 5328 103e e542 ac3d
00000190: 22ef 07be d93d b2be a468 b53d d2ae 96be
000001a0: 49aa 80bd 3de2 f43d dccf ac3c f86c 33be
000001b0: f711 553d 3b1e d83d 3ffb 13bd 072c 26be
000001c0: ec70 aebe 5f18 b43d 3164 7a3e e895 3abe
000001d0: ac91 37be ba5b aa3d 3bdc f5bc 14c4 b5bc
000001e0: 5465 8cbe ed2a 073e af29 bc3c 4e9a 45be
000001f0: 50dd b9be f955 1b3e c086 9fbc 9a47 29bd
00000200: 7463 f43e 1d9f d93d 5c74 14be 37e7 d03d
00000210: bae6 bebe d168 b5bd d8da 93be d108 ba3e
00000220: c945 5ebd 3bff 0c3e 7aa4 0a3d 5c27 403d
00000230: f9f5 143e 0af3 d53b 09e8 ff3d 4709 a53e
00000240: e08c de3c 5641 143e 2b07 3a3e 6d10 743e
00000250: 62bc 7e3e ddb1 e7ba 96a7 553e 8461 01be
00000260: 24b0 f83d 3237 43be b697 663e 7bf1 8f3e
00000270: 7cc4 c1be 517a 2c3e 0da7 293d 23c6 c63d
00000280: d4e7 b43e 4b73 a3bd 4aa4 d43d fe11 f2bd
00000290: 55e3 593e 9b4e 083d 6385 7d3d f7e6 a1be
000002a0: 565f 213e 30c6 5e3d f92a 6e3e ea8d a13d
000002b0: d3b9 dd3c 8029 fc3d 994a d6be 92f1 173e
000002c0: b5dd 2f3e cacb 843d 30ae eabc d682 54be
000002d0: b502 443e 8d7f 5dbd 1924 053e fffb 36bd
000002e0: 7188 2bbe 713c fe3d 30f2 b8be 6331 56bd
000002f0: 7b1c 0bbd 0cd3 0e3c 36c8 fc3d b35f 04bf
00000300: d013 323d bbdd 87bd 2c55 603d 9e47 023d
00000310: b52d d83d cda6 b2bd ffea 8fbd 42f5 38be
00000320: 27e2 64be 4ca0 50bd f23d 52be f5b7 003c
00000330: 2c9e 57be cf61 d6bd e919 29bd 1c53 93ba
00000340: 7073 47bd 585a 2cbe 9f77 3abc 7013 343e
00000350: f698 26be f47c 963d 8c5f 1dbe 23d3 3bbd
00000360: 79f7 97bd af11 53be 9d04 51bd 7204 5abe
00000370: e9c3 4abe bd8e 64bc 20dc e7bc 23aa c4bd
00000380: a9ee 0c3d 84ef 01bd 1557 c3ba 8169 a83d
00000390: 3757 3f3b dd45 b83d 9d53 d6bc ee9b 10bd
000003a0: e914 babb ab69 e2bd b8e0 81bd 5a82 1f3e
000003b0: 2342 4dbe 9678 0cbb 2ef2 1fbe 9af0 16be
000003c0: 136e 063e e226 f8bc b54c a03c 8700 edbd
000003d0: fb8d 75bd 220d 673d e490 2d3e 0a07 d6bd
000003e0: 5128 e1bc 9049 5fbe d2dc 11be 488e a0bd
000003f0: f553 113b a200 9a3d 2261 a03d 02a8 ebbd
0.0501165 0.33330968 -0.07241302 -0.076917164 -0.1694405 -0.20866093 0.01542077 0.21188313
-0.018980829 -0.022813099 0.062310185 0.1037798 0.09580075 0.21175 -0.11647211 0.01974483
0.25238955 0.02848437 0.008880559 -0.35066026 -0.14063142 -0.30161873 0.07352972 0.09092847
0.13113606 -0.051980283 0.15514408 0.035839695 -0.12962286 0.1409413 -0.14683712 -0.415233
0.068662636 0.17668132 0.23139572 0.07593499 0.16757803 0.058293127 -0.3140163 -0.17673211
-0.051666245 -0.23656905 0.053426348 -0.16734761 0.119123295 -0.16533774 -0.027101919 -0.0740609
0.08747631 0.13059966 0.34258613 0.124179825 0.055566236 0.0445636 0.10288281 0.24711381
-0.03975495 0.1327138 -0.16857168 -0.40223098 0.012576251 0.12015766 -0.18652809 -0.17460206
-0.19731794 0.09942794 0.25853154 0.1739176 0.09121054 -0.1502731 0.0276879 -0.24743776
-0.13662736 0.2642721 -0.07756567 0.22519723 -0.17208165 0.24586047 -0.3756905 -0.22794172
0.32119453 -0.1028448 0.22887158 -0.1353597 -0.14618227 -0.038811166 -0.09889477 -0.11486952
-0.13065869 -0.011127741 0.13254721 -0.22876228 -0.16831875 0.016034504 0.1489997 0.08946989
-0.14631239 -0.43630776 0.14077882 0.084111966 -0.13274816 -0.3481281 0.08857849 -0.29430252
-0.06282479 0.11957214 0.021095209 -0.17522037 0.052019086 0.10552641 -0.03612828 -0.16227733
-0.34070528 0.08793711 0.24452282 -0.18221247 -0.17926663 0.08318277 -0.03001224 -0.022188224
-0.27421057 0.13199969 0.022969095 -0.19297144 -0.3630166 0.15169515 -0.019473433 -0.04132805
0.47732127 0.106260516 -0.14497513 0.10200351 -0.37285405 -0.08857883 -0.28877902 0.3633485
-0.05426577 0.13769238 0.033848263 0.046912536 0.14546956 0.0065292167 0.12495429 0.3223364
0.027166784 0.14478049 0.18166797 0.23834391 0.2487655 -0.0017676909 0.2086471 -0.12634856
0.12142971 -0.19064024 0.2251881 0.28113922 -0.37845218 0.16843535 0.041419078 0.0970576
0.3533312 -0.07980975 0.10382898 -0.11819838 0.21278127 0.03327809 0.061894786 -0.31621525
0.15759024 0.054388225 0.2325858 0.07888396 0.027066147 0.12312603 -0.41853788 0.14838246
0.17174418 0.06484182 -0.028647512 -0.20753035 0.19141658 -0.05407672 0.13002051 -0.044673916
-0.16751267 0.12413872 -0.36122274 -0.052293193 -0.033962708 0.00871731 0.12342875 -0.51708525
0.043475926 -0.066340886 0.054768726 0.03180658 0.10555593 -0.08723221 -0.07027244 -0.18062308
-0.22351895 -0.05093412 -0.20531443 0.007856359 -0.21056432 -0.10467874 -0.041284475 -0.0011239978
-0.048694074 -0.16831338 -0.011381059 0.1758554 -0.16269287 0.07348052 -0.1536848 -0.045855653
-0.074202485 -0.20612215 -0.05102979 -0.21290758 -0.19801296 -0.013950047 -0.028303206 -0.096027635
0.03440729 -0.03172256 -0.0014903272 0.08223248 0.0029196271 0.089977 -0.026162917 -0.035304956
-0.005678762 -0.11055311 -0.0634169 0.15577069 -0.2004476 -0.002143418 -0.15619728 -0.1474022
0.13127927 -0.030291978 0.019567827 -0.11572366 -0.059949856 0.05640901 0.16949803 -0.10450561
-0.027485045 -0.21805406 -0.14244393 -0.07839638 0.0022175286 0.07519652 0.078310266 -0.11506654

fc.3.bias f4 [32]
00000000: 33d4 60be 9e03 193f 075c 07be 3ba3 3dbd
00000010: c03a 913d 6b2f 923d ebbe 2e3e fabd 51be
00000020: 0df7 52bd 14e4 ddbe d315 053e 49b2 c13e
00000030: 6583 7cbe 02e2 9fbd c78f 2bbe d87a adbd
00000040: aed2 73be eff8 8cbe ee7f af3d ffce 2f3e
00000050: 3715 abba 1701 693e c925 3f3e 1f36 aebe
00000060: 6969 3c3e c796 143d 509e 24be 1aab 80be
00000070: 1b3c 6cbe fab5 643c 0556 af3d cbae 1abe
-0.21955948 0.59771144 -0.132187 -0.046298247 0.07091284 0.071379505 0.17065017 -0.20482627
-0.051505137 -0.43338072 0.12996607 0.37831333 -0.24659498 -0.078067794 -0.16754065 -0.08470696
-0.23810837 -0.2753367 0.085693225 0.17168806 -0.0013052587 0.22754322 0.18666758 -0.34025666
0.18399586 0.036276605 -0.16076016 -0.2513054 -0.23069803 0.013959402 0.08561329 -0.1510574

linear.0.weight f4 [16, 32]
00000000: 529a 353e 4864 96bd 01bc 123f c0db c3bd
00000010: a6fc b13e a848 133e ac35 75bd 05b0 3c3e
00000020: 5e73 db3d 5eb9 a93b b7d9 b1bc f763 45be
00000030: 888c b93e 520b 813e 8005 b63e e4d6 30be
00000040: d91d d13d 0988 d43d a49e 083a a538 b7bb
00000050: 7e69 42be ca2f 0ebe 1fad 94bd 0f61 943e
00000060: 17fb 8b3d cd34 97bd e40c a4bc 0809 e9bc
00000070: b25c 9bbe ead6 1d3e 5486 87bc bbad de3d
00000080: 08a9 96bd ae3a a7be f295 793e b9c1 8cbc
00000090: 1b01 063e a4d6 45be 9be4 ac3d 3e24 733e
000000a0: 0f7e 273e 5461 cebc 3f1f 1fbc 511e 0a3d
000000b0: 2178 193e 6302 06be f145 2c3e 65ed 843d
000000c0: 49c8 6dbe 2750 31be 39c1 66be 35c5 903e
000000d0: 370a 0fbe 6f6b e53e f458 a23e a4e7 99bd
000000e0: 359b 1c3e 6d49 933d a640 063e fc03 b6bd
000000f0: 59f8 36bd 4d9a 1bbe 60ab 21be 40bf 203e
00000100: aded bebd 4723 7a3d 7081 a93d 0cfb b73a
00000110: 83d8 25be 1066 22be b15e bcbd 24fb 8c3d
00000120: 2430 d8bd 63ba 583d 384c 0b3d de9c ff3d
00000130: 6a2f 55bd d451 2f3e c4b8 053e a68b bd3c
00000140: 9bf6 b1bc e6c9 d73d 4efd 62bd c72e df3d
00000150: 7211 97be a700 d9bd 6a98 993b b5c2 a9bc
00000160: 19c4 bb3d 488d 4cbe 0ce3 5bbe b451 d8bd
00000170: 973c 22bc cd87 c73c 7294 dcbc d041 f5bd
00000180: 129c 18be abd4 033f 660a bfbd 24ee 13be
00000190: 3155 053e 42b4 bf3e cd8c 953e d2c4 bf3d
000001a0: 71b4 873c 1259 413e bec8 8abd c9a8 3bbe
000001b0: 8e24 2abc 7e25 57bd cd5a a33c 2e44 bf3d
000001c0: 99bc 833e 9fd1 123d b8b3 af3e 9741 a23d
000001d0: f10e 953d 7867 a0be 452f 10bf 9d9e 73bd
000001e0: b53c d53a 63f9 05bd b7f9 c73d e917 8dbd
000001f0: 7115 103e 2ad2 70be 6290 77be fcfd 2bbe
00000200: 4cfe 963d d17b 96be 793b 203e 1173 753d
00000210: 8b1b 013e 0b54 2c3e 5f16 09be 5938 eb3c
00000220: 08f9 633e 4166 743d 7d82 ffbd a587 b7be
00000230: 68bf b53d 8dca 6a3d 1d59 1dbd b589 8a3d
00000240: 1bb1 85bd 99d5 553c 3e5e 203e 45db 60be
00000250: 65d6 d03e d644 26bc fe85 3f3c b0e6 4d3d
00000260: d1da c0bd 122a ae3d 716a 873e 670c 353e
00000270: f529 6c3d 7268 b0bc 2d96 7dbd 56a1 083e
00000280: 959b 863d 69e1 2e3c 76ac 8b3e a7d8 b73c
00000290: fc18 7c3e 6065 033e 4421 8abc 44cc 23bc
000002a0: 2d67 e33c e51a a7bd d3da 893d 4aaf afbd
000002b0: 0c7a febd 4d6f 353d 1cb8 bb3d 82a3 11bd
000002c0: acd0 663d 5fca a33b baf8 14bd 5e23 95bd
000002d0: c7f4 1fbd 3a32 0fbe 59d2 a4bd 26c1 9e3d
000002e0: 4566 73bc 82e9 abbd 793d 97bd 4888 83bd
000002f0: 4eaf 7ebe 21c9 5b3d 87c3 5dbd 73c0 c83b
00000300: 9d0e b23e 470c abbd 45d7 1c3e 02bb 24be
00000310: 769f 2b3e 10dd 3bbe 91b6 fabe d8b8 193e
00000320: 12d1 95be 5f3f c7bc 5a4b 4e3e bc1c 083d
00000330: 2abf 063e b81d cbbc d5fa 3bbe 2265 72be
00000340: 5535 ec3d c52a 793e 6fde 97be e774 1abe
00000350: de4b 0e3b 3150 42be c5c5 293e a2ab 31be
00000360: 31e4 d5be fc0d 523e 2e2e 443e f0f6 8fbe
00000370: 4743 4f3d d4c6 a53e 5b21 cc3e 51e3 8ebd
00000380: 70e5 7dbc 6eeb ef3b 046a 37be 4c56 78bd
00000390: 2be8 6abb 997d e73c 65ef 4cbd cbcf 15bc
000003a0: 8bb0 423e 1429 95bd fe77 80bd 9b86 ae3a
000003b0: f5d8 b8bc 70d5 06be 44d4 d5bd 3d1d 623c
000003c0: 81a2 b8bc 5e06 ddbd fc36 473d 1ca7 393c
000003d0: c1a3 503e b82a cd3d 41cd c33c ff85 9dbc
000003e0: 3007 f33c e792 713d d5e5 903d 239e 0d3e
000003f0: c40d db3c e0e9 1cbd df14 f0bc 160b 7dbd
0.1773465 -0.07343346 0.5731812 -0.09563398 0.34763068 0.14383185 -0.05986564 0.18426521
0.10715364 0.005179568 -0.02171026 -0.19276415 0.3624003 0.2520395 0.3555107 -0.17269474
0.10210771 0.10377509 0.00052116276 -0.0055914694 -0.18985555 -0.13885418 -0.07259583 0.289803
0.06835001 -0.07383118 -0.020025678 -0.02844669 -0.30344158 0.15414014 -0.016543545 0.1087298
-0.07356459 -0.32661957 0.24373606 -0.017182218 0.13086359 -0.1932016 0.084420405 0.23744294
0.16356681 -0.025192894 -0.0097120395 0.03372032 0.14987232 -0.13086848 0.16823556 0.06490592
-0.23220934 -0.17315732 -0.22534646 0.28275457 -0.1396874 0.44808528 0.3170849 -0.07514885
0.15293582 0.07191739 0.13110599 -0.08887479 -0.044670437 -0.1519558 -0.1578803 0.15697956
-0.09322677 0.0610688 0.08276641 0.001403661 -0.16195874 -0.15859246 -0.091977485 0.06883839
-0.10556057 0.052912127 0.034008235 0.12481092 -0.05204717 0.17121059 0.13058764 0.023137879
-0.021724036 0.10536556 -0.05541735 0.10897594 -0.29505497 -0.105958275 0.0046873586 -0.020722726
0.09168262 -0.1997577 -0.2147333 -0.10562459 -0.009902141 0.024356747 -0.026926253 -0.11975443
-0.14903286 0.5149638 -0.09328155 -0.14446312 0.13020779 0.37442213 0.29208985 0.09363712
0.016565533 0.18881634 -0.0677657 -0.18326105 -0.010384692 -0.05252599 0.019940758 0.09339176
0.25729826 0.03584444 0.34316802 0.079226665 0.072782405 -0.3132894 -0.5632213 -0.059477437
0.0016268702 -0.032708537 0.09764426 -0.06889326 0.14070679 -0.23517671 -0.24176171 -0.16796106
0.07372722 -0.2939134 0.15647687 0.05992419 0.12608163 0.16828935 -0.1338744 0.028713392
0.22262967 0.05966783 -0.124760605 -0.35845676 0.088743985 0.057322074 -0.038415063 0.06764547
-0.06527921 0.013051414 0.1566095 -0.21958645 0.4078857 -0.010148248 0.011689661 0.05026883
-0.09416736 0.08504118 0.26448396 0.17680512 0.0576572 -0.021534178 -0.061910797 0.13342795
0.06572644 0.010673859 0.27280015 0.022442175 0.24618906 0.1283164 -0.016861565 -0.009997431
0.027759159 -0.081594266 0.067311905 -0.085783556 -0.12425622 0.044295598 0.091659755 -0.035556324
0.05635135 0.0049984897 -0.036370017 -0.072821364 -0.039051797 -0.13984004 -0.08047933 0.07751684
-0.014855926 -0.083941475 -0.07384772 -0.06422478 -0.24871561 0.05365861 -0.054141548 0.0061264574
0.34776774 -0.08351951 0.15316494 -0.16086963 0.16760048 -0.18346047 -0.48967412 0.15011919
-0.2926107 -0.02432221 0.20145932 0.03323053 0.13158861 -0.024794444 -0.18357404 -0.23671392
0.1153361 0.24332722 -0.2966189 -0.15083657 0.00217127 -0.18975903 0.1657935 -0.17350629
-0.4177566 0.20513147 0.19158241 -0.28118086 0.05060127 0.32378256 0.39869198 -0.06976951
-0.015496597 0.0073217666 -0.17911536 -0.060629174 -0.003584395 0.028258132 -0.050032992 -0.00914378
0.19012658 -0.07283226 -0.06272887 0.0013315262 -0.02256439 -0.13167357 -0.10440877 0.013800916
-0.022538425 -0.1079223 0.04863642 0.011331346 0.20374967 0.100179136 0.023901584 -0.019228933
0.029666513 0.058977988 0.07075087 0.13829856 0.026739962 -0.038308978 -0.029306827 -0.06177815

linear.0.bias f4 [16]
00000000: 2264 013d ceac a03e b5c1 f7bd 3858 62be
00000010: 1810 ffbe 915b b03d 5358 193e 4451 1b3e
00000020: 1925 fdbd 0bd5 2c3e 4fef 6b3c 11f1 84bd
00000030: 1f95 50be 2e26 d23e c809 283e 805e f63d
0.031589635 0.3138184 -0.120974936 -0.22103965 -0.49816966 0.08611215 0.149751 0.15167719
-0.123605914 0.16878144 0.014400317 -0.06491292 -0.20369385 0.41044754 0.16409981 0.12029743

out.0.weight f4 [1, 16]
00000000: 8a2f e3bf 3c10 ff3e fa4e e3bf 9412 fd3e
00000010: 318d d7bf fcb3 cebf 5337 f43e 002a debf
00000020: caf3 fa3e 984a 0b3f 126e 1b3f be47 033f
00000030: 5a18 fbbf 3b1d ddbf 50a1 fd3e 5782 cb3e
-1.7748883 0.49817073 -1.7758477 0.49428236 -1.6839963 -1.6148677 0.4769846 -1.7356567
0.4901412 0.54410696 0.6071483 0.51281345 -1.9616807 -1.7274545 0.49537134 0.3974788
