models_checkpoints/model_v1.pt (torch_old, 109160 bytes, 7 tensors)

fc.0.weight f4 [128, 128]
0	0xbe1208bb	-0.14261143
1	0xbe23b4b1	-0.15986897
2	0x3d8f33cf	0.069923036
3	0x3e069a67	0.13144837
4	0x3d9c5d74	0.07635012
5	0x3e739050	0.2378552
6	0xbd284cb3	-0.04108877
7	0xbdd56208	-0.104190886
8	0xbdcec77c	-0.100966424
9	0x3dfb7c8d	0.122796156
10	0xbc73fa30	-0.014891192
11	0xbe5c7d3d	-0.2153215
12	0x3d3045f2	0.043035455
13	0x3e1e05ae	0.15431854
14	0xbe500197	-0.20313106
15	0xbd83e52f	-0.06440198
16	0xbe8462c5	-0.25856605
17	0x3e2832f0	0.16425681
18	0x3e9a4900	0.3013382
19	0x3ed8bf11	0.42333272
20	0xbec1d84b	-0.3786033
21	0xbe0c8d3a	-0.13725749
22	0xbbc7e5ee	-0.006100408
23	0x3de2178c	0.110396475
24	0x3e02a92c	0.12759846
25	0x3dee904f	0.116486184
26	0x3e91bce1	0.28464416
27	0x3c7e9449	0.015538284
28	0xbc30d94a	-0.010793993
29	0xbf16125a	-0.5862175
30	0xbd8bbf10	-0.06823552
31	0xbdf91e59	-0.121639915
32	0x3c948606	0.018130314
33	0x3d229eaf	0.039702114
34	0x3ca1a86e	0.019733634
35	0x3cf3aa4e	0.029744294
36	0x3e6e2da8	0.23259604
37	0x3dc09de2	0.09405114
38	0x3df1e594	0.11811367
39	0xbd1abf63	-0.037780177
40	0x3d6c140b	0.057636302
41	0x3e6ffeb7	0.2343701
42	0xbe689fb1	-0.22717167
43	0xb9b0a57f	-0.0003369264
44	0xbdb5f360	-0.08884311
45	0x3e78a2a7	0.24280797
46	0xbd706664	-0.058691397
47	0xbcc61eda	-0.024184633
48	0xbd42fb28	-0.047602803
49	0xbd1c1a98	-0.0381113
50	0x3e08cc14	0.133591
51	0x3d017e93	0.03161485
52	0xbcb9c1c2	-0.022675399
53	0xbc8e2ca6	-0.017355274
54	0x3e156fd0	0.14593434
55	0xbe14c309	-0.14527525
56	0xbde29c24	-0.11064938
57	0xbe7340cb	-0.23755185
58	0x3bfe70b5	0.0077649006
59	0xbc70ebc6	-0.01470465
60	0xbd449a93	-0.047998976
61	0x3e797b27	0.24363385
62	0x3dbd06fc	0.09229848
63	0x3d117898	0.035515398
64	0xbc9fa378	-0.019487128
65	0xbcf2cb56	-0.029637974
66	0xbe1df125	-0.1542402
67	0xbe270ff6	-0.16314682
68	0xbe528f7a	-0.20562544
69	0x3d8a6a91	0.06758607
70	0x3d27f883	0.041008484
71	0xbd6c33a8	-0.05766645
72	0x39315288	0.0001691078
73	0xbdac19bd	-0.08403347
74	0xbd87022d	-0.06592212
75	0xbe081daf	-0.13292573
76	0xbae0bbd2	-0.0017145819
77	0x3e097a12	0.13425472
78	0x3e69c874	0.22830373
79	0xbd5c2356	-0.053744636
80	0xbd64ef43	-0.05589224
81	0x3d365f4e	0.044524483
82	0x3d932113	0.07184043
83	0xbe023240	-0.12714481
84	0x3cf1c20e	0.029511478
85	0x3dc09dbe	0.09405087
86	0x3e0ee6fa	0.13955298
87	0x3e56933f	0.20954607
88	0xbe96d5a7	-0.2945988
89	0xbe16cbc6	-0.14726171
90	0x3dcba69d	0.09943888
91	0x3d903b4d	0.07042561
92	0xbd896a51	-0.06709731
93	0x3d681e69	0.056669626
94	0x3cf29fbc	0.029617183
95	0x3c0bd260	0.008534044
96	0x3e179250	0.14801908
97	0x3d849956	0.06474559
98	0xbb795686	-0.0038045957
99	0xbd12663c	-0.03574203
100	0xbdccc345	-0.09998182
101	0xbcf40789	-0.02978875
102	0x3aab9afe	0.0013092456
103	0xbe24499b	-0.16043703
104	0x3bcda900	0.00627625
105	0xbe406c4a	-0.18791309
106	0xbd1f1dde	-0.038846843
107	0xbe18d732	-0.1492584
108	0x3dc96eb1	0.09835566
109	0xbdd5b4f9	-0.104349084
110	0xbe8cb096	-0.27478474
111	0x3d960fe2	0.07327248
112	0xbc8bcc6e	-0.017065253
113	0x3c901f1c	0.01759296
114	0x3e36027a	0.17774382
115	0xbce7553c	-0.028238885
116	0xbdd7d860	-0.10539317
117	0xbe5385e3	-0.20656542
118	0x3e4b2976	0.19840035
119	0xbe667721	-0.22506382
120	0x3df3176a	0.118697
121	0xbca6c651	-0.020358237
122	0x3c9179c8	0.017758265
123	0xbcc0accf	-0.023519902
124	0xbe31324b	-0.17304341
125	0xbd821a11	-0.06352628
126	0x3c63487e	0.013872264
127	0xbdca6a5c	-0.09883568
128	0x3d2a07e2	0.041511424
129	0xbcb6dd2e	-0.022322264
130	0x3dd0d1d8	0.101962745
131	0xbdddb3a6	-0.10825281
132	0x3da8cbb5	0.08241979
133	0xbd8c1d60	-0.0684154
134	0x3e066206	0.1312333
135	0xbb7a06f0	-0.0038151108
136	0xbd8a38d8	-0.06749123
137	0x3e058706	0.13039789
138	0x3d9917d1	0.07475246
139	0x3ed3bfa9	0.41357163
140	0x3dcf24a9	0.10114414
141	0xbe386b9e	-0.18009803
142	0xbe17d69d	-0.14827962
143	0xbd957a4e	-0.072987184
144	0x3d720602	0.05908776
145	0xbdae6f39	-0.08517308
146	0xbdeb6357	-0.11493557
147	0xbdb42b44	-0.08797315
148	0x3dcf4733	0.10121002
149	0x3e8579f5	0.26069608
150	0x3d4cffc4	0.050048605
151	0x3d9aaff2	0.0755309
152	0x3cbfa90b	0.023396036
153	0x3dca759a	0.09885712
154	0xbe939499	-0.2882431
155	0x3e194e70	0.14971328
156	0x3bba9e78	0.0056951605
157	0x3e06e3b6	0.13172802
158	0xbd9a21e9	-0.07525999
159	0x3dc43e10	0.0958215
160	0xbc1cf230	-0.009579226
161	0xbc606797	-0.013696573
162	0x3dfcba05	0.12340168
163	0x3d2222b2	0.03958387
164	0xbdcedb28	-0.101003945
165	0xbdcb1d16	-0.09917657
166	0xbdd6b49c	-0.10483667
167	0x3ddc7da8	0.107661545
168	0xbe88cdbd	-0.26719466
169	0xbdc389b7	-0.095477514
170	0x3d97e7c1	0.074172504
171	0xbd563d1c	-0.052304372
172	0x3d8745a6	0.06605081
173	0xbdbe669a	-0.092969134
174	0x3d0a5c41	0.033779386
175	0xbdad9686	-0.08475976
176	0x3c9229c6	0.017842185
177	0xbd818cb3	-0.06325664
178	0x3e6a2fd9	0.22869815
179	0x3ce843a0	0.028352559
180	0xbe55c508	-0.20875943
181	0xbdb182b3	-0.08667507
182	0x3c3eafb0	0.011638567
183	0x3c85ba14	0.01632408
184	0xbbeb954f	-0.00718943
185	0x3de21e2d	0.11040912
186	0x3e269014	0.16265899
187	0x3d946904	0.07246593
188	0xbd38a6df	-0.045081016
189	0xbe0e58fd	-0.13901134
190	0xbde2980b	-0.11064156
191	0x3daaedf4	0.08346167
192	0x3eadd457	0.33951065
193	0x3ebf3b0f	0.37349746
194	0x3dbe60fd	0.09295843
195	0xbd6f9ce0	-0.058499217
196	0x3d9b1808	0.07572943
197	0xbcbac04e	-0.022796776
198	0x3de4fa2f	0.11180531
199	0x3edad4f6	0.427406
200	0x3e62b19e	0.22138068
201	0x3db32fb2	0.087493315
202	0x3ebd0a81	0.36922076
203	0x3e85ce6a	0.26134044
204	0x3df1aa50	0.11800063
205	0x3d263f09	0.04058746
206	0x3d45ef67	0.048324015
207	0xbd304429	-0.043033753
208	0xbdf73403	-0.12070467
209	0x3bfbdda3	0.0076863333
210	0xbda62afe	-0.08113669
211	0x3e2af471	0.1669481
212	0xbd92b481	-0.07163335
213	0xbc940256	-0.01806752
214	0xbda4f02c	-0.08053622
215	0x3df8e7be	0.12153576
216	0x3e64ec66	0.22355804
217	0x3db970eb	0.090547405
218	0x3dbfb8c8	0.09361416
219	0xbdc39a52	-0.09550919
220	0xbd00120c	-0.03126721
221	0xbdc4bc57	-0.096062355
222	0xbd873365	-0.066015996
223	0x3d5bf1f9	0.05369756
224	0x3d9cc8e9	0.07655508
225	0x3d854b90	0.06508553
226	0xbdc87ccc	-0.09789428
227	0xbd2a08cf	-0.041512307
228	0xbdf7a99a	-0.12092896
229	0xbcef8727	-0.02923925
230	0x3e017fd6	0.12646422
231	0x3d4b083d	0.049568404
232	0x3b9290d1	0.00447283
233	0x3e421e4e	0.18956873
234	0x3dc00086	0.093751
235	0x3d2d69b8	0.04233715
236	0xbda82d0b	-0.08211716
237	0x3d42b892	0.0475393
238	0xbd675f90	-0.05648762
239	0xbe4263ea	-0.18983427
240	0x3eb2fef1	0.3496013
241	0x3d23f89f	0.040032025
242	0x3c82fa6a	0.015988547
243	0xbdcccbd3	-0.09999814
244	0xbe0bb22d	-0.13642187
245	0x3e40b926	0.18820629
246	0xbd28f9cd	-0.041253854
247	0x3df2025e	0.11816858
248	0xbcd099ad	-0.025463903
249	0xbd722d3f	-0.05912518
250	0xbc19b777	-0.00938212
251	0x3cc53ca1	0.024076762
252	0xbc177c12	-0.009245889
253	0x3cb23f54	0.021758713
254	0x3dd08629	0.10181839
255	0x3c3455b8	0.011006765

fc.0.bias f4 [128]
0	0xbe786645	-0.24257763
1	0xbe4d7283	-0.20063214
2	0xbe81ccd5	-0.25351587
3	0xbe190eb1	-0.1494701
4	0xbe320122	-0.17383245
5	0xbb7d7a7a	-0.0038677738
6	0xbecae462	-0.39627367
7	0xbec3aace	-0.3821625
8	0xbe9b2bc3	-0.30306825
9	0xbd8419ff	-0.06450271
10	0xbec5924c	-0.38588178
11	0xbef97ed8	-0.48729587
12	0xbe565e56	-0.20934424
13	0xbe67b8a6	-0.22629032
14	0xbdcf8622	-0.10133006
15	0xbca9d3ec	-0.020730935
16	0xbe9af1e7	-0.30262682
17	0xbf260c97	-0.6486296
18	0xbe8efe5d	-0.2792844
19	0xbe979d4c	-0.29612195
20	0xbeeb1b76	-0.4591939
21	0xbdef0b8a	-0.11672123
22	0xbe8f0819	-0.27935866
23	0xbe087e09	-0.13329329
24	0xbe905bf9	-0.2819517
25	0xbde68d43	-0.11257412
26	0xbdf6298f	-0.120196454
27	0xbe8866fe	-0.26641077
28	0xbed004e6	-0.40628737
29	0xbef0a538	-0.47001052
30	0xbe8f857b	-0.28031525
31	0xbf235047	-0.6379437
32	0xbedd337b	-0.4320334
33	0xbed89720	-0.423028
34	0xbede4bf7	-0.43417332
35	0xbdde4910	-0.10853779
36	0xbed12813	-0.40850887
37	0xbe8e1281	-0.27748492
38	0xbeb8cbea	-0.36093074
39	0xbed3d918	-0.41376567
40	0xbe8ccc5a	-0.27499658
41	0xbeaad19e	-0.3336305
42	0xbe9c0155	-0.30469766
43	0xbe250a91	-0.16117312
44	0xbeda3e1f	-0.4262552
45	0xbef4fb19	-0.47847822
46	0xbeb67991	-0.35639623
47	0xbea75b1b	-0.32686695
48	0xbe8b0972	-0.27155644
49	0xbec10ef8	-0.37706733
50	0xbe94500d	-0.28967324
51	0xbe990386	-0.298855
52	0xbeb3f635	-0.3514878
53	0xbddf74aa	-0.10910924
54	0xbef06ec7	-0.46959516
55	0xbec4d599	-0.38444212
56	0xbde3f717	-0.11131113
57	0xbd9add04	-0.07561687
58	0xbe8a9783	-0.2706872
59	0xbf1b9c43	-0.6078531
60	0xbe1e2944	-0.15445429
61	0xbe630fdc	-0.22174019
62	0xbe694551	-0.22780348
63	0xbe6442cd	-0.22291107
64	0xbe819500	-0.2530899
65	0xbe9f32eb	-0.31093535
66	0xbead80b1	-0.33887246
67	0xbe3a7418	-0.18208349
68	0xbf0397bf	-0.5140342
69	0xbeb6e42d	-0.3572096
70	0xbe24781e	-0.16061446
71	0xbeec98d0	-0.46210337
72	0xbe6b99b3	-0.2300785
73	0xbdd5a21c	-0.104313105
74	0xbd70d7ab	-0.058799427
75	0xbe8a0d41	-0.26963237
76	0xbe08c47d	-0.13356204
77	0xbe611a6e	-0.21982738
78	0xbe5b2e22	-0.21404317
79	0xbf0a9402	-0.5413209
80	0xbec5e406	-0.3865053
81	0xbe5c22f9	-0.21497716
82	0xbe7cf611	-0.24703242
83	0xbefbadfe	-0.49156183
84	0xbe9ea6cd	-0.30986634
85	0xbca6141c	-0.02027326
86	0xbe996e9a	-0.29967195
87	0xbee1468b	-0.43999133
88	0xbc3c4d74	-0.011493076
89	0xbe730b19	-0.23734702
90	0xbed29c52	-0.41134888
91	0xbea4ccc1	-0.32187465
92	0xbf0ab47d	-0.54181653
93	0xbeadbcaa	-0.33933002
94	0xbea89d26	-0.32932395
95	0x3dba526e	0.090977535
96	0xbee3874f	-0.4443917
97	0xbe1f66a6	-0.15566501
98	0xbdd53421	-0.104103334
99	0xbea4de74	-0.32200968
100	0xbe8d2b5b	-0.2757214
101	0xbe2f47a2	-0.1711717
102	0xbea1524f	-0.3150811
103	0xbef57180	-0.47938156
104	0xbee7b2c4	-0.45253575
105	0xbe861ba9	-0.26192978
106	0xbe6a6ea7	-0.22893773
107	0xbea9b189	-0.3314326
108	0xbed4f844	-0.41595662
109	0xbecc3e97	-0.39891502
110	0xbee337ba	-0.44378453
111	0xbee78ef4	-0.45226252
112	0xbe6dab6f	-0.23209928
113	0xbeba7ef3	-0.3642498
114	0xbde6d211	-0.11270536
115	0xbde4fc0a	-0.11180885
116	0xbefafdef	-0.4902186
117	0xbe8ecf98	-0.27892756
118	0xbedffdae	-0.4374823
119	0xbe6527b1	-0.22378422
120	0xbe380fc5	-0.17974766
121	0xbe175771	-0.1477945
122	0xbe5faa1c	-0.21842235
123	0xbe49b50d	-0.19697972
124	0xbeb657f1	-0.3561397
125	0xbe457fbe	-0.19287011
126	0xbedd641f	-0.4324045
127	0xbe74885d	-0.23880143

fc.3.weight f4 [64, 128]
0	0xbdfee637	-0.12446254
1	0xbdbb18d7	-0.09135597
2	0x3c84ef09	0.016227262
3	0x3e43d06b	0.19122474
4	0x3ceb67ab	0.028735956
5	0xbe9bdb12	-0.30440575
6	0x3e1950fe	0.14972302
7	0xbe30ba75	-0.17258628
8	0x3d20d951	0.03926975
9	0xbb7c1206	-0.0038462891
10	0xbe7a628f	-0.2445166
11	0xbddfb382	-0.1092291
12	0x3df72666	0.12067871
13	0x3e8f8b1b	0.28035817
14	0xbe17319c	-0.14765018
15	0xbe00df22	-0.12585118
16	0xbab51a1e	-0.0013816988
17	0x3e7bf7d4	0.24606258
18	0xbd637d4f	-0.055539425
19	0x3e808a3b	0.2510546
20	0x3da6cfbf	0.08145093
21	0xbe0ccad7	-0.13749252
22	0xbe17bcf2	-0.1481817
23	0xbe2d1d3b	-0.16905682
24	0x3cf45989	0.02982785
25	0xbe67258d	-0.22572918
26	0x3cf72b7c	0.030172102
27	0x3bc09ca7	0.0058780494
28	0xbda055ba	-0.07828851
29	0x3cb4c957	0.022068663
30	0xbd80157b	-0.06254097
31	0x3e8355d5	0.25651422
32	0x3e0d795f	0.1381583
33	0xbe546244	-0.2074061
34	0x3dd20723	0.102552675
35	0xbc1b3cf6	-0.009474983
36	0xbd4b522f	-0.049638923
37	0xbe631e79	-0.22179593
38	0xbdbc1d5c	-0.09185287
39	0xbd818f9a	-0.06326218
40	0xbe34a635	-0.17641528
41	0xbe25578b	-0.16146676
42	0xbb3632c5	-0.0027801257
43	0x3d94a4c7	0.07257991
44	0xbcdd0434	-0.026979543
45	0xbe83ea65	-0.25764766
46	0xbe074d65	-0.13213117
47	0xbd9b5a6a	-0.075856045
48	0xbd3392d2	-0.04384119
49	0x3e8150a9	0.2525685
50	0xba8f37bc	-0.0010926644
51	0x3e0b6843	0.13613991
52	0x3e3e6c00	0.18595886
53	0x3ce14b86	0.027501833
54	0x3e050ade	0.12992427
55	0xbe1cbaf2	-0.15305689
56	0x3ca0b52f	0.019617645
57	0xbe260d0d	-0.16215916
58	0xbe25165e	-0.16121814
59	0xbd778efb	-0.06043909
60	0xbeaaef69	-0.3338578
61	0xbe14cc4a	-0.14531055
62	0xbe35a492	-0.1773856
63	0xbe870e58	-0.2637813
64	0xbe357b87	-0.17722903
65	0x3e5c29e9	0.21500362
66	0x3ce40058	0.027832195
67	0x3e5d2d59	0.2159933
68	0x3df5c154	0.11999765
69	0xbcf9e38e	-0.030504014
70	0x3d13daec	0.036097452
71	0xbe0c9b6d	-0.13731165
72	0x3ce3c162	0.027802173
73	0xbea18ba3	-0.31551847
74	0xbe3a8c4a	-0.18217579
75	0xbe8c88ef	-0.27448222
76	0x3dd6a575	0.10480777
77	0xbdd9fd41	-0.106440075
78	0xbe923455	-0.2855555
79	0x3e3509a7	0.17679463
80	0x3d83af67	0.0642994
81	0xbdcb7091	-0.0993358
82	0x3dcc6ed8	0.09982079
83	0x3ebb075d	0.36529055
84	0x3d2251f7	0.03962895
85	0xbdd69cb0	-0.104791045
86	0xbbbe6891	-0.005810805
87	0x3dae53ec	0.085121006
88	0x3d205a5b	0.03914867
89	0xbe588041	-0.21142675
90	0x3e4eff1e	0.20214507
91	0xbe5a0426	-0.21290645
92	0x3e4afabc	0.1982221
93	0xbda5db3a	-0.08098455
94	0x3bc92abb	0.006139127
95	0x3d62c293	0.05536134
96	0x3cb57064	0.022148319
97	0x3daf69bf	0.08565091
98	0xbe94ec1b	-0.29086384
99	0xbdbedc1a	-0.09319325
100	0x3da302b5	0.07959501
101	0xbe29b191	-0.16571642
102	0x3df908ec	0.12159905
103	0x3a330cfa	0.0006830242
104	0x3e0e4044	0.13891703
105	0x3e4079db	0.18796484
106	0xbdae5734	-0.085127264
107	0xbdf955db	-0.12174579
108	0xbe6ec160	-0.23315954
109	0x3d93042c	0.0717853
110	0x3d9c845d	0.07642434
111	0x3d82fecd	0.06396256
112	0xbd0ef18e	-0.034898333
113	0x3d13377f	0.035941597
114	0xbd6e243b	-0.05814002
115	0xbee36530	-0.44413137
116	0x3d2d6408	0.042331725
117	0xbe724cfc	-0.2366218
118	0x3dbb9cda	0.091607764
119	0xbe510b35	-0.20414431
120	0xbe8434fa	-0.25821668
121	0x3e020446	0.12696943
122	0xbe2b4b8f	-0.16728042
123	0x3e1c93b8	0.15290725
124	0xbd923911	-0.07139791
125	0x3d9a5e31	0.07537497
126	0x3da73264	0.08163908
127	0xbd889983	-0.06669905
128	0x3d99b227	0.07504683
129	0x3d2bbdde	0.04192912
130	0xbced2cea	-0.02895208
131	0xbe09b0c3	-0.13446335
132	0xbcd8c931	-0.026463123
133	0x3ddd969c	0.10819742
134	0x3d5eb977	0.05437609
135	0xbe6ff7b8	-0.23434341
136	0xbde04feb	-0.10952743
137	0x3d93de18	0.072200954
138	0x3d2a4a9e	0.041575067
139	0xbd0b6f6c	-0.034041807
140	0xbe05129e	-0.12995383
141	0x3e83e7fd	0.2576293
142	0x3e250a47	0.16117202
143	0xbe988b5c	-0.29793823
144	0x3e0d7ea9	0.13817848
145	0x3d903a60	0.07042384
146	0x3ded4b77	0.115866594
147	0xbd81904d	-0.06326351
148	0x3eb4dca7	0.35324594
149	0xbcae4a14	-0.021275558
150	0xbe0b3282	-0.13593486
151	0xbce2ce97	-0.0276864
152	0x3dee94aa	0.11649449
153	0x3e0540c4	0.13012987
154	0xbdd7595e	-0.10515092
155	0x3bc3864f	0.0059669386
156	0xbe39bd5a	-0.18138638
157	0xbe720800	-0.23635864
158	0xbcbdf847	-0.023189677
159	0xbe35cbb9	-0.17753495
160	0x3e9ef77d	0.31048194
161	0xbd9eba51	-0.07750381
162	0xbe1410e2	-0.14459565
163	0x3d830bd0	0.063987374
164	0xbcaea8c8	-0.021320716
165	0x3d3f0df2	0.04664416
166	0xbec95829	-0.39325073
167	0xbe003090	-0.12518525
168	0xbe6a89f7	-0.22904192
169	0x3e293ccc	0.16527098
170	0x3def4829	0.11683685
171	0x3d6a782b	0.057243507
172	0x3e8ed67a	0.27898008
173	0x3cdf16ce	0.027232554
174	0xbe088afb	-0.13334267
175	0x3e1d5ed0	0.153682
176	0x3e3915d0	0.18074727
177	0x3e0b3d2f	0.13597558
178	0x3e7f4c9d	0.2493157
179	0x3ea20cdc	0.31650436
180	0xbd822a99	-0.06355781
181	0x3dd641e8	0.10461789
182	0x3e8324a2	0.25613886
183	0xbe010c96	-0.12602457
184	0xbced1983	-0.028942829
185	0x3d9c6721	0.07636858
186	0x3dbd1008	0.09231573
187	0x3d918194	0.07104793
188	0x3c52cbef	0.012866004
189	0x3da0133e	0.0781617
190	0x3d602762	0.05472506
191	0xbe0d0f26	-0.1377531
192	0x3c28821d	0.010284928
193	0xbeb0a9cd	-0.34504548
194	0x3df37494	0.1188747
195	0x3e659845	0.22421367
196	0xbd1b327a	-0.037889935
197	0x3dc8c3e0	0.09802985
198	0xbe151b0e	-0.14561102
199	0x3d672b63	0.05643786
200	0x3e03f484	0.12886244
201	0xbdb551ef	-0.08853518
202	0xbe0c5d4a	-0.13707462
203	0x3dc01f89	0.09381015
204	0xbe24f537	-0.16109167
205	0x3ce81901	0.028332235
206	0xbd6f993c	-0.058495745
207	0xbe1cbba0	-0.15305948
208	0xbe0e9387	-0.13923465
209	0x3e560f87	0.2090436
210	0xbe118deb	-0.14214294
211	0xbe348332	-0.17628172
212	0x3e0440de	0.1291537
213	0xbd211429	-0.039325867
214	0xbd93fe78	-0.072262704
215	0x3e602fc6	0.21893224
216	0x3bc683f7	0.006058212
217	0x3d861e01	0.065486915
218	0x3e65aed0	0.22429967
219	0xbccac19c	-0.024750523
220	0x3d8670d8	0.06564492
221	0x3a4d985f	0.00078428345
222	0xbc99f461	-0.018793287
223	0xbc8d4054	-0.017242588
224	0xbe7511dc	-0.23932594
225	0xbc3ae4ea	-0.011407116
226	0xbcbc5593	-0.022990024
227	0xbe0b7ccf	-0.1362183
228	0xbd1b551d	-0.037922967
229	0xbcc3f289	-0.02391936
230	0xbe45da41	-0.19321539
231	0xbe201b92	-0.15635517
232	0xbbe06ac1	-0.0068486636
233	0xbda62fab	-0.08114561
234	0xbd97e2ed	-0.074163295
235	0x3ddb090e	0.106950864
236	0xbe061797	-0.13094936
237	0x3e0bbc40	0.1364603
238	0x3da01e5d	0.07818291
239	0x3d5508b3	0.05201025
240	0xbe977323	-0.2958003
241	0x3d54cc3a	0.051952578
242	0xbda1f944	-0.07908872
243	0xbe6340c3	-0.22192673
244	0x3dc365b2	0.09540881
245	0xbe423895	-0.18966897
246	0xbd037592	-0.032094546
247	0x3d5b886e	0.053596906
248	0xbd1cde6d	-0.03829806
249	0x3db2c5d5	0.0872914
250	0xbe28bf27	-0.16479169
251	0x3e70c6e3	0.2351337
252	0x3d57d5ee	0.052694254
253	0x3e8491aa	0.25892383
254	0x3cac979f	0.021068392
255	0x3e00b89f	0.12570427

fc.3.bias f4 [64]
0	0xbefb0842	-0.49029738
1	0xbe8cd17d	-0.27503577
2	0xbea95e1c	-0.33079612
3	0x3e3808de	0.17972133
4	0xbcc7d9d8	-0.024395868
5	0xbf16c3e9	-0.58892685
6	0x3e585e76	0.21129784
7	0x3dcee24e	0.10101758
8	0x3dd190f1	0.102327235
9	0x3e844e87	0.25841162
10	0x3ed333e2	0.4125052
11	0x3e19bb16	0.15012774
12	0xbe46e711	-0.19424082
13	0xbe346ddd	-0.17620035
14	0x3d6910d7	0.056900825
15	0xbe257921	-0.16159488
16	0x3f062aef	0.5240926
17	0x3e6503f9	0.22364797
18	0xbe5770f3	-0.2103918
19	0xbeb599d4	-0.35468924
20	0x3e547d56	0.20750937
21	0xbe94f644	-0.29094136
22	0xbe163bf7	-0.14671312
23	0xbf07317d	-0.5280989
24	0xbf0ce7e6	-0.5504135
25	0xbeb1860c	-0.34672582
26	0xbeafed2c	-0.34360635
27	0xbedabb12	-0.42720848
28	0xbe22621d	-0.1585774
29	0xbecc68e6	-0.3992378
30	0x3e819250	0.2530694
31	0x3eae8382	0.34084707
32	0x3e0aebde	0.13566539
33	0xbc4b9258	-0.012425028
34	0x3f035554	0.51302075
35	0xbe1dbdfc	-0.15404505
36	0x3eb2bcad	0.34909573
37	0xbe89b9d6	-0.26899594
38	0x3eea1889	0.45721844
39	0xbee3cedf	-0.44493768
40	0x3eaca5bb	0.33720192
41	0xbe1b2eeb	-0.15154617
42	0xbdb01068	-0.08596879
43	0xbdf45d4b	-0.11931857
44	0x3e34972a	0.1763579
45	0x3e08cc29	0.13359131
46	0xbf07ed0e	-0.5309609
47	0xbe0d2d2f	-0.13786767
48	0xbe41aace	-0.18912813
49	0xbd8dce6e	-0.06924139
50	0xbe938b9b	-0.28817448
51	0x3e5e7041	0.21722509
52	0xbf340bc8	-0.70330477
53	0x3e1c10a2	0.1524072
54	0xbe14cf10	-0.14532113
55	0xbe32b6a8	-0.1745249
56	0xbeb44a44	-0.3521291
57	0xbf352c12	-0.7077037
58	0xbe9b7e21	-0.30369666
59	0xbe20f1ce	-0.15717241
60	0x3e23aae4	0.15983158
61	0xbe04a792	-0.12954548
62	0xbe1eeddc	-0.15520424
63	0x3e64cce1	0.2234378

linear.0.weight f4 [32, 64]
0	0x3d2cba99	0.04217014
1	0xbd3fb53b	-0.046803694
2	0xbba78c3a	-0.005113152
3	0x3e18d30e	0.14924261
4	0x3eb3da53	0.35127506
5	0xbe416e83	-0.18889813
6	0x3d8b5fe9	0.06805403
7	0xbdeef312	-0.11667456
8	0x3f01cfec	0.5070789
9	0xbe5c298a	-0.21500221
10	0xbdb4c948	-0.08827454
11	0x3dc97e1d	0.09838507
12	0x3e11dd9c	0.14244694
13	0xbd47f429	-0.048816834
14	0x3e25a180	0.16174889
15	0x3de07b5a	0.109610274
16	0xbd8868ec	-0.06660637
17	0xbb30aeed	-0.0026959733
18	0x3d12285c	0.03568302
19	0x3e1fbf32	0.15600279
20	0xbe72d739	-0.23714913
21	0x3cb0c55d	0.021578485
22	0x3da89af8	0.08232683
23	0xbd8350a3	-0.064118646
24	0xbd7a12cc	-0.061053082
25	0x3d6e46f7	0.058173146
26	0x3d420967	0.047372248
27	0xbd265df2	-0.040616937
28	0x3aa4f136	0.0012584093
29	0x3e5db298	0.2165016
30	0xbc8857a7	-0.016643358
31	0xbe19bef9	-0.15014257
32	0xbccf98dc	-0.025341444
33	0x3c009770	0.0078486055
34	0xbdce0921	-0.10060335
35	0xbd961776	-0.073286936
36	0xbd2c995e	-0.04213845
37	0xbe83e7ca	-0.2576278
38	0x3e650f81	0.22369196
39	0x3e89a436	0.26883096
40	0x3d84e2ad	0.064885475
41	0x3e577ee7	0.21044503
42	0x3dfdb90e	0.12388812
43	0xbce1a24f	-0.027543215
44	0x3e111545	0.1416827
45	0x3e9c28c2	0.30499846
46	0x3ca2c0cc	0.019867323
47	0x3e3c9f03	0.18420033
48	0xbe83627f	-0.25661084
49	0x3e25bbd9	0.1618494
50	0x3e8a8bea	0.2705987
51	0xbd8fa8fc	-0.07014653
52	0x3e8250a0	0.25452137
53	0x3d310efb	0.043227177
54	0xbdbc1934	-0.091844946
55	0xbcac6464	-0.021043964
56	0x3e22e4af	0.15907548
57	0x3da7b469	0.081887074
58	0xbd775a3e	-0.060388796
59	0x3d4e8a28	0.050424725
60	0xbd9dcacc	-0.07704696
61	0x3e07c262	0.13257745
62	0x3daee081	0.085389145
63	0xbc5d4bd4	-0.013506848
64	0xbea92e68	-0.33043218
65	0xbe5c2e43	-0.21502022
66	0x3b29a632	0.0025886414
67	0x3ecc0894	0.39850295
68	0x3e07fb9a	0.13279572
69	0x3e0069bd	0.12540336
70	0xbe4c4a37	-0.19950186
71	0x3d928e63	0.07156064
72	0x3e0d4abc	0.1379804
73	0x3e84cd2b	0.2593778
74	0xbceecac5	-0.029149422
75	0xbe8c6f6b	-0.27428755
76	0x3cdf7a03	0.02727986
77	0x3d7f614e	0.062348656
78	0x3e1981e2	0.14990953
79	0x3ea1215d	0.31470767
80	0xbe67d317	-0.22639118
81	0x3dd81a35	0.105518736
82	0x3dc19000	0.09451294
83	0xbc3021e5	-0.010750269
84	0x3e8f5b21	0.27999213
85	0x3e192c44	0.14958292
86	0x3db0619c	0.086123675
87	0x3db65d79	0.08904547
88	0xbdafcf2f	-0.08584439
89	0xbd407656	-0.046987854
90	0xbe795cf2	-0.24351862
91	0xbdf17ad5	-0.117910065
92	0xbdee5396	-0.116370365
93	0xbe9614b3	-0.29312667
94	0x3e0f8c87	0.1401845
95	0xbe4f9026	-0.20269832
96	0xbd06781a	-0.03282938
97	0xbd7bc05a	-0.061462738
98	0x3dfcb249	0.12338693
99	0x3dc0bbcd	0.0941082
100	0x3e964d4c	0.29355848
101	0x3b352923	0.0027642928
102	0x3c09f68b	0.008420597
103	0x3e12d6e6	0.1433979
104	0x3d36bfc7	0.044616487
105	0xbe06a4e0	-0.13148832
106	0xbdf1320e	-0.11777125
107	0x3cbafc80	0.02282548
108	0xbd9df844	-0.077133685
109	0x3d6d518a	0.05793909
110	0x3ea4cd4d	0.32187882
111	0xbc54cb34	-0.0129879005
112	0x3e937251	0.28798154
113	0xbdd503cf	-0.10401117
114	0xbdc250fa	-0.09488101
115	0xbea25ae9	-0.31709984
116	0x3d9f1262	0.07767178
117	0xbb902876	-0.0043993546
118	0x3d9e276a	0.077223614
119	0x3d1134b7	0.035450663
120	0xbe0866bb	-0.13320439
121	0xbdfa6452	-0.12226166
122	0xbdecc8b5	-0.11561719
123	0xbe87df85	-0.2653772
124	0x3dfbc14a	0.12292726
125	0xbdfe48ee	-0.12416254
126	0x3dfffffa	0.124999955
127	0x3e4d24ac	0.2003352
128	0xbec00f10	-0.37511492
129	0xbe8ee434	-0.2790848
130	0xbe0b334c	-0.13593787
131	0x3e786d99	0.24260558
132	0xbd5cb49f	-0.05388319
133	0xbda9326d	-0.08261571
134	0xbe8c6087	-0.27417395
135	0xbe69d560	-0.22835302
136	0xbd6ef9f2	-0.058343835
137	0x3e33f324	0.1757322
138	0xbe8d5183	-0.2760125
139	0x3e075481	0.1321583
140	0xbe03c0e0	-0.12866545
141	0x3d9bee5d	0.076138236
142	0x3e4bceb9	0.19903077
143	0x3e004eb3	0.12530021
144	0x3eb60c79	0.3555639
145	0xbea71564	-0.32633507
146	0xbd7f6cc3	-0.062359583
147	0xbcfee273	-0.031113839
148	0x3c63d3c7	0.013905472
149	0x3d82cac0	0.06386328
150	0x3e078107	0.13232814
151	0xbddad9ae	-0.1068605
152	0x3c8070a1	0.015678706
153	0xbc8aef5e	-0.016959842
154	0xbda71444	-0.08158162
155	0x3d56fc15	0.052486498
156	0xbd4cb972	-0.049981542
157	0xbe81c059	-0.25342062
158	0x3d759173	0.059953164
159	0x3cf11015	0.029426614
160	0x3e8848f4	0.2661816
161	0x3e42abd8	0.19010866
162	0x3ea8ca80	0.32966995
163	0x3e71a793	0.2359908
164	0xbd37a28e	-0.04483276
165	0xbe070e16	-0.13188967
166	0x3dd83a5b	0.105580054
167	0x3d94a3e5	0.07257823
168	0x3e60349f	0.21895073
169	0xbd396ad7	-0.045267906
170	0xbd70febb	-0.05883668
171	0xbd01fe86	-0.031736873
172	0x3d8d70ec	0.06906304
173	0x3df4e795	0.11958233
174	0x3c9bd21e	0.01902109
175	0xbd928958	-0.071551025
176	0x3b065bb3	0.0020501434
177	0xbdd7bfaf	-0.105346076
178	0xbe2e7ef1	-0.17040612
179	0xbe0c1bad	-0.13682432
180	0x3ddda805	0.10823063
181	0x3bb950a8	0.005655367
182	0x3e6a4000	0.22875977
183	0xbe4ba0ef	-0.1988561
184	0x3cdf172c	0.027232729
185	0xbdb4a0c1	-0.08819724
186	0xbd2dfd92	-0.04247815
187	0xbed50269	-0.416034
188	0x3e1c8ed6	0.15288863
189	0x3de39dab	0.11114057
190	0x3d4b2511	0.049595896
191	0xbd83cb4c	-0.0643526
192	0x3d8b0e17	0.06789797
193	0xbd10533f	-0.03523564
194	0xbe36743c	-0.17817777
195	0x3dde4d70	0.10854614
196	0xbca51bb4	-0.020154811
197	0xbd872183	-0.06598189
198	0x3e864469	0.26224068
199	0x3dd50494	0.10401264
200	0xbc5c2908	-0.013437517
201	0xbe809aa4	-0.2511798
202	0x3deee5ea	0.116649464
203	0x3e00586e	0.12533733
204	0x3e785aca	0.24253383
205	0xbcbf3725	-0.023341725
206	0xbdf75c39	-0.12078137
207	0x3c09c9fe	0.008409975
208	0xbdd90b46	-0.10597853
209	0x3e585ba9	0.21128716
210	0x3e896847	0.2683737
211	0x3d35ab91	0.04435307
212	0x3cb1eadc	0.021718435
213	0x3d1de1e1	0.038545493
214	0xbd9e87c4	-0.07740739
215	0xbe5ffed3	-0.21874551
216	0x3d648d3e	0.05579876
217	0xbcf7f599	-0.030268477
218	0xbe044e0e	-0.129204
219	0xbbe46948	-0.0069705583
220	0xbe1975e7	-0.14986382
221	0x3d922b09	0.071371146
222	0xbd4ae779	-0.049537156
223	0xbee13fb4	-0.43993914
224	0x3c916fb0	0.017753452
225	0xbe0bee35	-0.13665088
226	0xbe531ff3	-0.20617656
227	0x3e0212ab	0.12702434
228	0x3e3f2196	0.18665156
229	0xbd87aa05	-0.066242255
230	0xbe49dc5f	-0.19712971
231	0x3e09935b	0.13435118
232	0xbeabf261	-0.33583358
233	0xbe4cf67b	-0.200159
234	0xbe8a5661	-0.27019027
235	0x3d1ea737	0.038733687
236	0xbe11a0a4	-0.14221436
237	0xbe4823f0	-0.19544959
238	0x3ed6164d	0.4181389
239	0x3cc2f6f3	0.023799395
240	0xbe681674	-0.22664815
241	0x3e4d0d39	0.20024575
242	0xbe529032	-0.20562819
243	0x3e6053c3	0.21906953
244	0x3e075a94	0.13218147
245	0x3eace323	0.33767042
246	0xbc969f1b	-0.018386414
247	0xbdf97f9d	-0.121825434
248	0x3d21e892	0.039528437
249	0xbe75f5c4	-0.24019533
250	0xbe40c585	-0.18825348
251	0xbc7b2b88	-0.015330203
252	0xbe686a1c	-0.22696728
253	0xbc5ce3ed	-0.013482076
254	0x3d0fee45	0.03513934
255	0xbe8e1c3c	-0.27755916

linear.0.bias f4 [32]
0	0xbd00fde3	-0.031492125
1	0x3d564788	0.05231431
2	0x3e86e6ff	0.2634811
3	0xbeea6453	-0.45779666
4	0xbeb4c8a3	-0.35309324
5	0xbe992769	-0.2991288
6	0x3db5627f	0.08856677
7	0x3eb85641	0.36003307
8	0xbdd126e3	-0.10212495
9	0x3d1303be	0.03589224
10	0x3e9a7e00	0.30174255
11	0xbf3278e7	-0.6971573
12	0xbd849288	-0.06473261
13	0xbf97fa07	-1.1873177
14	0x3f5a21c0	0.8520775
15	0x3e221622	0.15828755
16	0xbef541de	-0.47901815
17	0x3ecc7ae9	0.39937523
18	0xbf3b5998	-0.73183584
19	0xbeed7fea	-0.46386653
20	0xbf0f331e	-0.55937374
21	0x3f33dc24	0.7025778
22	0xbf0d55b4	-0.552089
23	0xbe216f9c	-0.15765232
24	0xbed7b91c	-0.42133415
25	0xbe854e55	-0.26036325
26	0xbeaaebaa	-0.33382922
27	0xbe0ea1e7	-0.13928948
28	0xbf2aac04	-0.66668725
29	0xbf14d541	-0.581379
30	0x3e389a00	0.18027496
31	0x3ea24fa2	0.3170138

out.0.weight f4 [1, 32]
0	0xbf6833d0	-0.9070406
1	0x3efc8185	0.49317566
2	0x3f20ad41	0.62764364
3	0x3ec51566	0.38492888
4	0x3f03c461	0.51471525
5	0x3f15c170	0.5849829
6	0xbf42dfd6	-0.76122797
7	0x3f252f55	0.6452535
8	0x3f31454a	0.6924635
9	0xbf517543	-0.8181955
10	0x3f390ccf	0.7228517
11	0xbfa4dfc3	-1.2880787
12	0xbf4a3096	-0.78980386
13	0xbfd2eaeb	-1.6477941
14	0xbf7576ee	-0.958846
15	0xbf24e681	-0.6441422
16	0x3f030e9c	0.5119417
17	0xbf5edcf6	-0.8705591
18	0xbf85f89f	-1.0466498
19	0xbf4a13cc	-0.7893646
20	0xbf81cae0	-1.0140038
21	0xbf466300	-0.7749481
22	0x3f3689f4	0.7130425
23	0xbf2468d9	-0.64222485
24	0x3f7316cf	0.9495668
25	0x3ed2f0a2	0.41199213
26	0x3f024190	0.5088129
27	0xbf36e23b	-0.7143895
28	0xbf67f532	-0.90608513
29	0xbf4fa2c2	-0.81107724
30	0xbf534d7d	-0.8254011
31	0x3f4c22e8	0.7974076
