models_checkpoints/model_test2.pt (torch_old, 45160 bytes, 7 tensors)

fc.0.weight f4 [64, 128]
00000000: 41a8 8a3e d6ef 663e e9c0 e03d bcdb d5bd
00000010: 9677 ed3d 847a dc3d 619e 6abd d7b4 963e
00000020: 6aa6 1f3e 1d43 f73a b3bc 8d3e 55da 433e
00000030: 6e7f ed3d 8748 583d 69e9 b33d d827 3ebc
00000040: 2fb9 adbd 20b0 a03d 3cee 4ebd 4d7b 5e3e
00000050: 6e8d 3cbe 6e86 b33d cb6e 553d 2386 7e3d
00000060: b184 fabd c130 213e 4f8e 2f3d 8462 853e
00000070: 4673 933d 1242 0e3c 60fb 6f3c 68b2 ee3d
00000080: 0fa1 743c b398 cb3c e7b3 1e3e 8992 bebc
00000090: 5d19 a1bd 80c5 d1bb fc16 eebc 2f5f df3d
000000a0: e62f e03d 3bbf 613d 6c46 2e3d e78d c4bc
000000b0: 1a57 1abd 053d 53bd 5302 a63d 26b5 19bd
000000c0: 8e74 88bd 670a b1bd 7f35 04be 9409 553b
000000d0: 11b9 113e b888 6dbd 9457 8f3d e122 04be
000000e0: df37 b33d 712c 8cbd c717 5c3d 4dc7 d0bd
000000f0: 1f57 2a3d 5a24 ccbd ea54 cebc 5180 233d
00000100: cb12 a53e 34d8 ad3e f624 e73d 9ade 233e
00000110: 6887 3e3d 4361 bfbd a912 24bd 9fbf f03e
00000120: 02d2 df3e 9847 f0bd a40c 003f 9bf8 083f
00000130: fa66 bdbd 51b7 6f3e 56ac 7abd e069 593c
00000140: bdf0 cfbc d9ed 973d 1610 8abd df97 2d3e
00000150: 158c 5ebe 5852 87be f7a6 bd3d 75ed 46bd
00000160: e360 f0bc 605f 1dbb 1712 113e 8c07 25bc
00000170: 358c 863c 10e3 723d a054 fabb 6ca9 c63d
00000180: 7207 7b3d 80ae 203d edaa b33d 9531 dbbd
00000190: 1f29 f9bb e0b7 143d 6ed7 003e 6197 16be
000001a0: b0f5 78be 305c c2bc da7b e23c b143 aa3d
000001b0: a219 adbd 44ac e53d 1e8b bdbd 744a 64bd
000001c0: 3c22 5a3e be43 b33c 3202 b93d c398 f2bd
000001d0: fd99 a23d 1b26 523d 1d2a b9bd fbdb 103e
000001e0: 6afb aebd 2ada ebbc 132f dc3d 5d9d 79bc
000001f0: a51d fabb f0d1 013e 74a7 4fbe f4a9 6ebe
00000200: f834 8bbe 7cfd 7ebe 8a0e 94ba c01d 4a3e
00000210: a091 063e 862d 083e 0656 b5bb 2de6 1dbe
00000220: 5c86 40be dfa6 023c d7d1 9fbe 050e bbbe
00000230: e20e 1dbc 2d26 32bc 7320 e0bd 88d4 b43c
00000240: d79f 1bbd e05a f6bb e604 87bd b7a7 70be
00000250: e36f 503e 46ca 71be 4fae 49bd a9b2 d03d
00000260: 8259 55be b5dd cb3d 82f4 0b3e 5de7 96be
00000270: 13a8 c9bd 5e76 3cbd 1c17 81bd 02c4 d43d
00000280: 21eb 883d 9e2a b83d e02e 7b3c 8e86 2dbd
00000290: b156 923d e40a 08be d5ca 36be c68f 0bbd
000002a0: 1227 da3d c3a7 b2bc eadf 933d b64e 9d3d
000002b0: 89b1 5dbd b2f4 fc3c fabe a0bd 1fd5 b53d
000002c0: bfbd 66bd ac1f d4bd dd92 113e 1015 3b3e
000002d0: 4aa4 cdbd 03ce 5d3e e7dc e6bd ff7c 4dbe
000002e0: 636b fe3c 7eb4 2c3d 9bb1 8e3e bbc6 6c3d
000002f0: c895 863b 5aa2 a6bd af91 cabd 44cc 6bbe
00000300: 4521 e8be b8ab fcbe af65 223e 2663 c53d
00000310: 3348 5b3d 5993 d33d eb53 c13d f30a b9be
00000320: 3428 fbbe 9a0f 2d3d 2c60 fdbe d42d 0d3e
00000330: 5f66 083e 6f1d abbd 5945 223c 5e23 5f3d
00000340: fac7 c8bc b4bb 963d 0e4c 4e3e 6413 943d
00000350: d946 98bd c58c 803e c6b3 ed3d ad8b 83bd
00000360: 7629 b5bd fd18 13be 770b 80bd 8d23 1d3e
00000370: 3644 a1bc 5479 d5bd b888 50bc af19 0bbd
00000380: 8a9b 1fbd e6fe 6f3d 4cb0 b9bd 36ac 0c3b
00000390: 09fa 6b3c 08be 2e3d c84e 033e 9ea4 363d
000003a0: 2792 bc3d 1969 3dbd 018e 22bd 29ab 32bd
000003b0: b2a1 c13d dd0a 28bd 83e6 1abe d1d1 393d
000003c0: fd5e 5b3d 0bfa ec3d c052 a4bd eb04 373e
000003d0: bd26 f0bc 0eec 453e 01a0 57bd be6e 5d3e
000003e0: 703f 9a3d c6dd 9abc 31b6 eabd e208 423d
000003f0: 39a4 803d c23e 8c3d 05db eb3d 80d4 043e
0.27081493 0.22552428 0.10974295 -0.10442302 0.11595075 0.107655555 -0.05727995 0.29434845
0.15590826 0.0018864606 0.2768303 0.19126256 0.11596571 0.052803542 0.08784754 -0.011606179
-0.084825866 0.07846093 -0.050520167 0.21726723 -0.18413326 0.08765875 0.052107614 0.06213964
-0.1223234 0.15741254 0.042860325 0.26051724 0.07199721 0.008682745 0.014647335 0.11655122
0.0149309775 0.024853086 0.15498315 -0.023263233 -0.07866166 -0.0064017177 -0.029063694 0.10906827
0.10946636 0.055114012 0.04254763 -0.023993446 -0.037680723 -0.051571865 0.08105912 -0.037526272
-0.06662856 -0.08644562 -0.12911032 0.003250693 0.14230753 -0.057991713 0.06999126 -0.1290393
0.08750891 -0.06844414 0.053733613 -0.101942636 0.04158699 -0.09967871 -0.025186975 0.039917294
0.322409 0.33954012 0.112863466 0.16002885 0.046515852 -0.09344723 -0.04005686 0.47021195
0.4371491 -0.117324054 0.5001929 0.5350434 -0.09248157 0.23409773 -0.06119951 0.0132698715
-0.025383348 0.07418413 -0.067413494 0.16952465 -0.21733125 -0.2643001 0.09260362 -0.0485663
-0.029343074 -0.0024013147 0.14167057 -0.0100726 0.016424278 0.059298575 -0.0076394826 0.097002834
0.061286397 0.039228916 0.08772836 -0.107028164 -0.007603779 0.03630817 0.1258218 -0.14706184
-0.24312472 -0.023725599 0.027646948 0.08313692 -0.08452155 0.11214498 -0.0925505 -0.055735067
0.21302122 0.021882888 0.09033622 -0.11845543 0.07939527 0.05130587 -0.090412356 0.14146416
-0.08544047 -0.028790552 0.10751166 -0.015235272 -0.0076329284 0.12677741 -0.20278722 -0.2330702
-0.2718885 -0.24901384 -0.0011295837 0.19737911 0.13141489 0.13298616 -0.0055339364 -0.15419836
-0.18801254 0.0079743555 -0.31214783 -0.36534134 -0.009586068 -0.01087336 -0.10943689 0.022073999
-0.037994232 -0.0075181574 -0.06592731 -0.23501478 0.20355181 -0.23612317 -0.0492385 0.10190327
-0.20834926 0.09954397 0.13667491 -0.2947339 -0.09846511 -0.04601132 -0.06303236 0.10388948
0.06685472 0.089925036 0.015331 -0.04236465 0.07145441 -0.13285404 -0.17850812 -0.03407266
0.10651983 -0.02180851 0.072204426 0.076810285 -0.05412439 0.030878399 -0.07848926 0.0887854
-0.0563333 -0.103576034 0.1421618 0.18269753 -0.10041101 0.21660618 -0.112726025 -0.20067213
0.031057065 0.04216432 0.27869877 0.05780671 0.004107211 -0.08136435 -0.09891068 -0.2302714
-0.45337883 -0.4934976 0.15859102 0.09638052 0.05353565 0.10330839 0.09439834 -0.36141166
-0.4905411 0.042251207 -0.49487436 0.13787013 0.13320301 -0.083552234 0.009904229 0.05447709
-0.024509419 0.0736002 0.201462 0.07230261 -0.07435388 0.251074 0.11606555 -0.064231254
-0.08845799 -0.14365001 -0.06252187 0.15345593 -0.019685846 -0.10423532 -0.012727909 -0.03396004
-0.038966693 0.0585927 -0.09066829 0.002146495 0.014402875 0.042661697 0.12823021 0.044590585
0.09207564 -0.046242807 -0.039686207 -0.043620262 0.09454669 -0.041025985 -0.15126996 0.045366112
0.053557385 0.115711294 -0.08023596 0.1787297 -0.029315347 0.19328329 -0.052642826 0.21624276
0.07531631 -0.018904578 -0.114605315 0.047371753 0.06281323 0.068479076 0.11516384 0.12971687

fc.0.bias f4 [64]
00000000: f020 e6be 6afc 02bf fa73 003e 485c 70be
00000010: f88d 77bc 2c3b d6be 0fed 51be b39b bdbd
00000020: 0ac6 02bf 55e2 79be 93f9 81be d8d6 96be
00000030: 76ac c8be 9cf4 17be d7a0 82be 33b1 33be
00000040: bd95 3fbe c137 f6bd e00a 34be 5548 00bf
00000050: 20be 81be fb03 04bf 26a4 65be c85d bdbe
00000060: cb09 19be 64a2 7dbe a3b7 adbd 03fd 63be
00000070: a707 debe eb73 a9be f1a8 c4bd 931a 59be
00000080: 77ec b9be 4842 b4be 762b 9ebe 3021 1dbe
00000090: 6c37 97be 6ffa c8be 5e5a 50be fc58 d0be
000000a0: 0213 debe 1806 00bd c9d6 82be 0ec6 85be
000000b0: cc96 93be 95cb d7be d954 99be fff5 1cbe
000000c0: 6f06 7fbe 4d58 d0be 9ed8 b2bd 066a d7be
000000d0: 633e e8be 9281 abbe 5618 cabe 76f8 5ebe
000000e0: c698 79bd 881f 43be c730 7abe 5f59 81be
000000f0: 8588 dfbe 96ef 6ebe c10c 8fbe fa4c afbe
-0.44947004 -0.51166403 0.12544242 -0.23472703 -0.015109532 -0.4184202 -0.20500587 -0.09258213
-0.51083434 -0.24402745 -0.25385723 -0.29460788 -0.39194077 -0.14839405 -0.25513336 -0.17548065
-0.18709464 -0.12022353 -0.17582273 -0.5011037 -0.25340366 -0.51568574 -0.22425899 -0.36985612
-0.14945142 -0.24768978 -0.084822915 -0.22264485 -0.43365213 -0.3309625 -0.096025355 -0.21201544
-0.3631322 -0.3520682 -0.30892533 -0.15344691 -0.2953447 -0.39253566 -0.20346972 -0.4069289
-0.43373877 -0.03125581 -0.25554493 -0.26127666 -0.28825986 -0.42147508 -0.29947546 -0.15328215
-0.24904798 -0.40692368 -0.08732723 -0.42073077 -0.45360097 -0.33497292 -0.39471692 -0.21774468
-0.06093671 -0.19054997 -0.2443267 -0.25263497 -0.43658844 -0.23333582 -0.27939418 -0.34238416

fc.3.weight f4 [32, 64]
00000000: 9216 a3bd f8d9 d13a 4d73 823e f8a0 193e
00000010: 6da2 6d3a 2392 bb3b 959d c7bd 542e 8bbd
00000020: b075 c5bc 4bb9 05be 7ba3 c6ba b697 27bb
00000030: 79b1 09bd 8f0f 033d 6679 56bd 3459 ee3d
00000040: 42bb 823d c377 4fbe 76f1 6f3d c92b 853e
00000050: add3 d03d 6a97 cfbd 6d81 4fbe fd38 8f3d
00000060: 2d1e d1bc 2d5c ca3c 9345 54bd 2261 04be
00000070: e337 043d 66ac 4cbd 3ef2 c4bc 9754 8f3d
00000080: 548e 1bbc c9c7 20be 968f 593c bfe5 28be
00000090: 0fc8 0a3e 7e71 f3bd 7d8f e1bc f396 0f3e
000000a0: 9a1d e03d 2d65 053e e588 7c3e f0d7 df3d
000000b0: 4d72 ec3d c233 52bb e140 893e d66d 3dbe
000000c0: cadb 2d3d 9325 703d 076e 70bd 746b ca3d
000000d0: f727 e7bd c775 74bd fcce bfbd 2185 08be
000000e0: 0c5c fc3d 68f1 febc 10d9 b4be 889a f13b
000000f0: 355b b2bd d7c6 4cbe 08c0 97be c561 a03d
00000100: c632 d5bd a629 ab3c 1f97 71bd a815 10be
00000110: 1b93 86bd ed1b 85bd d534 583e 1688 1e3e
00000120: 2eaf 8f3d 57eb 9c3d 6871 10bd 91ac 02be
00000130: 5413 173e 4a31 8abd c2c6 ed3d c421 4cbe
00000140: d75d 8fbd 7a13 2b3d 71a8 c93c 2f36 7e3b
00000150: 6519 e4bd 7973 a9bc 4f56 063e f84e 3abe
00000160: 9095 5a3d d47d e8bc 86f6 93bc 7327 3c3e
00000170: 6bd3 ecbc 5eaa 943d bd72 5d3d abea c2bd
00000180: 4dec cabc 60b3 9dbd f606 dd3b 4519 973e
00000190: d2e8 34be 9fa1 d93d 8783 89be c146 ab3e
000001a0: bb11 97be 1bd0 17be 1c8a 27be bdee 1d3e
000001b0: a053 623d a70f 463c 58f4 3bbc fa86 15be
000001c0: 17b6 9a3b 9ea9 aa3d fff3 5fbe 40ce 23be
000001d0: e195 abbe 155c 873d 9cbc c7bd 87e4 c3bd
000001e0: 6435 41be c793 7dbd b344 d83d 030e 8ebd
000001f0: 7699 203d 4de8 833e bfe9 95be a262 2e3c
00000200: e2b6 543e 5866 a43d 0a02 083e b250 85bc
00000210: a52e 2bbd 1b9c 883c 1685 87bd 146b a4be
00000220: 0aae 5f3d 1754 85be 7b11 143e 4458 d2bd
00000230: aea4 783e 9a6f 063e e9e2 fdbd c56c ef3c
00000240: 0745 9abe 4efc 343e f8b1 8e3c 4ffe 38be
00000250: c4d6 37be 8928 b6bd d699 99bd 57fe 89bd
00000260: 2d9e 7ebd 3654 b83c 7f5a 7ebe d745 cabd
00000270: 33b1 2c3d a536 acbd 8586 51be 632c fe3d
00000280: 9009 193e d088 9e3d 6b3b f53d b6fc e4bd
00000290: 1ffb f23d ff3c 18be 4fee 103d 72bc d43d
000002a0: e54a 8ebd 0bfa c9bd 3133 ec3d 09aa 03be
000002b0: 72c2 6abe 9a99 503c c926 3cbe f4c9 b63c
000002c0: 5d82 45bd 7e56 943c 6a25 193e 74f4 973d
000002d0: c01c 2abe a043 babd a8e9 8ebc 4564 c03d
000002e0: 0dc0 19bd dca1 643d f6e1 a0be 3c78 02bd
000002f0: 0615 c8bc 0a46 a1bc 5c0f 62be 903a 283d
00000300: 192a 263d aa25 b73d 74ac 713e 68e6 66bd
00000310: c07f 823e 4fa8 683e ab57 803e 8e3e 223e
00000320: 54dd a33d 947f 6c3e c7ec a9be 08f5 a2bd
00000330: 4871 08be 4bda 65be ff8b 823d f90d 6d3d
00000340: aba0 e2be bc62 663e 6a32 7cbd d2de b6b9
00000350: fd5e f8be ad46 a7bd 8ec3 053e 2104 5dbd
00000360: 12d7 a73c 13c5 de3d ce4d b6bd 8c76 553e
00000370: 7eef 103d 07b7 843d 107a 223d 6312 4dbe
00000380: a975 b2bd 5ef2 143e 0158 2abe 71a7 543e
00000390: 5b00 f6be 50da 9d3d acc7 86be 8021 923e
000003a0: 8ca6 9cbe 59be 2d3d 711f d6be 6717 a63d
000003b0: 26ad f2bc 7a46 0a3e 13ea 773e 0437 183e
000003c0: 58e9 6dbe 8bf1 1bbe fffd 593a aaf1 7bbe
000003d0: 4f12 c3bd 7aa2 c7bc 72a6 7abd fe45 57be
000003e0: d80b 2c3d 7c72 de3d c268 0f3e dbb6 c8bc
000003f0: 4fb0 123d 758f 80be 42a2 7b3d ff2f 47bc
-0.07963289 0.0016010394 0.25478593 0.15002811 0.0009065036 0.005724208 -0.09746853 -0.06795946
-0.02410397 -0.13058965 -0.0015154922 -0.0025572604 -0.033616517 0.03199726 -0.05236187 0.11638108
0.06383373 -0.20260529 0.058579884 0.26009968 0.10196624 -0.10136302 -0.20264216 0.069932915
-0.025527084 0.024702156 -0.051824164 -0.12927678 0.03227986 -0.0499691 -0.024041291 0.06998556
-0.009494383 -0.15701212 0.013278862 -0.16493891 0.13552879 -0.11886881 -0.02753424 0.14022426
0.10943146 0.13026877 0.24661596 0.10929859 0.11545239 -0.0032074307 0.2680731 -0.1849893
0.042445935 0.058629584 -0.05869868 0.09883776 -0.112869196 -0.059682634 -0.09365651 -0.13332035
0.12322244 -0.03112097 -0.35321856 0.007373158 -0.087088026 -0.19997726 -0.29638696 0.07831148
-0.10410075 0.020893883 -0.05898201 -0.14070761 -0.06571027 -0.06499467 0.21113904 0.154816
0.07015835 0.07662075 -0.035264403 -0.12761141 0.14753467 -0.067476824 0.11610176 -0.19934756
-0.070003204 0.04176662 0.024616452 0.003878962 -0.11137656 -0.020684944 0.13118862 -0.18194187
0.05336529 -0.028380312 -0.018061887 0.18374424 -0.028909406 0.072590575 0.0540645 -0.095174156
-0.02477088 -0.07700229 0.0067452146 0.29511467 -0.17666939 0.1062653 -0.2685816 0.33452418
-0.29505715 -0.1482548 -0.16361278 0.15423103 0.055255532 0.012088693 -0.01147183 -0.1460227
0.004721414 0.08333133 -0.21870421 -0.15996647 -0.33512786 0.0660936 -0.09752771 -0.095650725
-0.18868023 -0.06190851 0.10559978 -0.06936266 0.03920885 0.2576317 -0.29279897 0.010643633
0.2077289 0.08027333 0.13282028 -0.01627383 -0.04179253 0.016676 -0.06617181 -0.32112944
0.054609336 -0.26040718 0.14459793 -0.102707416 0.2428157 0.1312851 -0.12396795 0.02922667
-0.3013079 0.17674372 0.017418846 -0.18065761 -0.1795302 -0.0889445 -0.07500045 -0.067379646
-0.062162567 0.022501092 -0.24839209 -0.09876602 0.042161178 -0.0840886 -0.20461471 0.1241081
0.14945054 0.07740939 0.11974224 -0.11181013 0.11864304 -0.14867018 0.03538352 0.103875056
-0.06947879 -0.09862145 0.115332015 -0.12857832 -0.22925738 0.012731934 -0.1837417 0.022313096
-0.048220027 0.018107649 0.14955679 0.074196726 -0.1661253 -0.0909493 -0.0174454 0.09394125
-0.03753667 0.055818424 -0.31422395 -0.031852946 -0.024424087 -0.019686718 -0.22076172 0.041071475
0.04056749 0.08942731 0.23600942 -0.056372076 0.2548809 0.22720455 0.25066885 0.15844175
0.08001199 0.23095542 -0.3318846 -0.07956892 -0.13324463 -0.22446553 0.063743584 0.057874653
-0.44263205 0.22498602 -0.061571516 -0.0003487976 -0.4850997 -0.08167777 0.1306288 -0.053959016
0.020488296 0.10877433 -0.08901559 0.20846003 0.035384648 0.06480222 0.03966719 -0.20026545
-0.08713848 0.1454558 -0.16635133 0.20766999 -0.48047146 0.077076554 -0.26324213 0.28541183
-0.30595815 0.042417858 -0.41820863 0.081099324 -0.02962358 0.13503447 0.24210386 0.14864737
-0.23233545 -0.1522886 0.00083157414 -0.24603906 -0.095249765 -0.024369467 -0.06119389 -0.21022794
0.042003483 0.1086168 0.14004806 -0.024501255 0.035812672 -0.2510945 0.061434038 -0.012157439

fc.3.bias f4 [32]
00000000: 0ef0 ca3d 5120 d13d 229a abbe f288 153f
00000010: fda1 6d3d b9c3 3cbd b455 4abe 7f63 d1be
00000020: 7dc0 f7bd a0f6 7d3d 2247 013e d2fa 90bc
00000030: bfb9 19bd 287e ea3e ae43 c6bc 6fc0 8c3c
00000040: 3cec 56bd 522d 303d 2b17 b6bb 1d42 8b3d
00000050: 271d 0d3d d9e7 7a3e 72be 3ebe bce6 9fbe
00000060: 5175 9d3c a1f8 0d3e 81b7 3dbd 6190 113e
00000070: 5bd3 1b3e e045 db3d c2e3 22be efb5 b9be
0.09909068 0.10211242 -0.33516032 0.58412087 0.058015812 -0.046085093 -0.19759256 -0.40896222
-0.12097261 0.062002778 0.12624791 -0.017697725 -0.037530657 0.45799375 -0.024202194 0.017181603
-0.052471384 0.04301197 -0.005556961 0.067997195 0.03445163 0.24502505 -0.18627337 -0.31230724
0.01922098 0.13864376 -0.04631758 0.14215232 0.15217344 0.10706687 -0.15907195 -0.36271617

linear.0.weight f4 [16, 32]
00000000: 3635 e9bc c9d5 8cbd 3c2c e33c c789 d8bd
00000010: 4316 56bd bb53 a73d aa6e 95bd d223 7b3e
00000020: 5759 24bd cdda 06bd c938 7ebd e0af 4abe
00000030: 2807 41bd 64a3 95bd d4f0 353d f601 7dbe
00000040: 8d06 ccbd 5cda 85bd 0f90 323d 7275 dbbd
00000050: 11c9 b23d c660 f43c 2b73 de3c 2f38 823e
00000060: 3b2c af3c 01ca 0bbd dd2c b5bc 6488 43bc
00000070: 77dc a0bd d847 323d 6afd 523e 8da6 0fbe
00000080: 59ca 303e a0a0 a9be 37b4 8bbd ad5f b9be
00000090: b16c 903e 5ada c23e 0cda 833e 4e54 75be
000000a0: 7d34 c93e 86f2 463d 82e0 073d 366e a43d
000000b0: a42d 44bd e09d 89be f3b0 b9bd 599e 823e
000000c0: 29a6 32bc f557 abbd 3895 84bd 794e a23e
000000d0: a62f e43d d452 89be 7f3e ba3d 05b0 2b3d
000000e0: ccc9 07bc 23b0 12be 2053 87bd f1d3 6e3e
000000f0: f60c e03e 1093 0b3d a69c 2cbe 91e0 4fbe
00000100: 32fb 06bd 9ab0 84bd 46a6 8d3d 8fe4 d0bd
00000110: 0eab 80bd adc8 4d3d d8b2 d43d 99cc 543e
00000120: be65 bfbd 827b 71be 746b 28bd ddb6 bc3d
00000130: fb3e 9ebd 3aae f6bd 53bd 303e 6be3 1cbe
00000140: 483f a7bd 9d00 57be 98ea 9b3d 2869 26be
00000150: d538 cd3c 7537 503d 7470 b4bc f89a 3d3e
00000160: 5e59 a33d b4a4 00be ee28 ef3d 8ea2 1fbd
00000170: e42c 753b 904a 97bd d575 243c 8299 febc
00000180: e45e 7c3e ac13 56be 907f 393e 9015 ecbd
00000190: 1239 7a3e 5b23 d93e e76d 103e 2b02 d33d
000001a0: 2d50 8bbe 7fa5 9b3d f4fd fcbd e0f1 bb3d
000001b0: b5fc 2d3e ac26 a0be 4c68 b8bd 0b66 ef3d
000001c0: 5e96 473e f3f9 b73d d1b5 393e a02a 943e
000001d0: bda5 36be 1421 cebd 9675 0cbe 55fb debd
000001e0: 89d0 c8bd 3d52 093c c267 aabe 3d8d 623c
000001f0: 0925 e53e 4232 ed3c 20a2 5ebd 2876 e5bd
00000200: 2c7f c43d bf87 d7bd fa76 1f3e fb26 2fbe
00000210: 981e 6a3e 42a3 043f 341e 0d3e 16d9 b1bd
00000220: 09d8 a6be aae0 303c 658f 3abe ced1 9dbc
00000230: 5e51 123d 3952 90be 9e71 69bd cb57 a9bc
00000240: 0e33 3ebd 0149 3b3e cbcf 9d3d e00c b53e
00000250: 858c 8b3e 1f22 71be d3d0 ae3c 2ef4 8ebe
00000260: a243 783d 4145 16bd 25b3 00be bf44 c1be
00000270: c2e9 813e 51c9 ed3c e313 153e fa8e f2bb
00000280: 9653 8a3d 50ff 9abe 97c8 643c f63a 7abe
00000290: a96b ef3c dab3 2cbb 9e4d ab3e 227d 803d
000002a0: da12 9c3e 6217 18be 3f6d d63e 39e2 093e
000002b0: 02fd 2d3c 4100 ad3e 7add 3abe 01b0 3ebd
000002c0: b2ca 73be 5d61 5b3e fc80 72be 7aac 19be
000002d0: bb65 cf3e bc77 c8bd ff77 c2bb 3c51 b33d
000002e0: 4d88 473e f542 5abd f41d 283b 3ef5 233d
000002f0: 8ed7 a03d 79d5 febe 596b 65be d9e0 46bd
00000300: 11e5 53be 3d23 6e3e 68c5 d1bd 6410 213f
00000310: 103c 53bd fee3 a0bd cc28 afbd 0a8b 05bd
00000320: 1817 86be 2801 aebd 2ba3 62be 224b 36be
00000330: 6885 14be 21fc 833e 74ab beba 3132 a8bd
00000340: 3b45 18bd 9de3 b73d fa1c ef3d 62ee 6fbe
00000350: f95b 0abd 913a 373e f82f 743e d405 12bd
00000360: 17c4 9b3d f712 963e c905 863e bb10 713e
00000370: b98a c6bd efb5 303e 9e0e cf3d 6175 583d
00000380: 313d e5bd 6c19 92be d81e 773e 45cc 89be
00000390: 2541 093e 1f86 643e 5d9e ae3e e302 1e3d
000003a0: 70fd b3bb ec5e 85bd b1d1 243e 8f8e 2d3e
000003b0: 58c5 c7bd 07d1 a8bc 8846 85be 5ef3 603e
000003c0: 79df 0fbe 2e29 943e 1abc 18bd 8487 dd3d
000003d0: f61e b03e 5e28 42bd d87d 59bd c851 46be
000003e0: 2a61 2a3d cedf 34be 3a23 52be 017e 08be
000003f0: 215b 8c3e 376c 9cbe 3e57 c8bd 1261 3abe
-0.028467756 -0.06876714 0.027731054 -0.10573154 -0.052267324 0.08170267 -0.07296498 0.24525383
-0.040124264 -0.03292351 -0.062065873 -0.19793653 -0.047125965 -0.07306555 0.044419125 -0.2470778
-0.09962187 -0.06535789 0.043594416 -0.1071576 0.087297566 0.029831301 0.027154526 0.2543349
0.021383395 -0.034128193 -0.022116119 -0.0119343735 -0.0785455 0.043525547 0.20604482 -0.14028378
0.1726469 -0.3313036 -0.06821483 -0.36205807 0.28207925 0.38057214 0.25752294 -0.23957941
0.39297858 0.048571132 0.03317309 0.080288336 -0.04789509 -0.26878262 -0.090669535 0.25511435
-0.0109038735 -0.08366386 -0.06473774 0.31700495 0.11141901 -0.26821005 0.090939514 0.041915912
-0.008287858 -0.14325003 -0.06607652 0.23323037 0.43759888 0.034075797 -0.16856632 -0.20300509
-0.032954402 -0.064789966 0.0691648 -0.10199844 -0.06282626 0.050240207 0.10385674 0.20781173
-0.09345578 -0.2358227 -0.0411181 0.09214566 -0.07726856 -0.1204495 0.17259721 -0.15321128
-0.08166367 -0.20996328 0.076131046 -0.16251051 0.025051514 0.050834138 -0.022026278 0.18516147
0.0797603 -0.1256283 0.116777286 -0.038973384 0.003741079 -0.073872685 0.010037859 -0.031079058
0.24645573 -0.20905942 0.18115067 -0.1152755 0.24435833 0.42409787 0.14104424 0.10303148
-0.27209607 0.07599925 -0.12353125 0.09176993 0.16990931 -0.31279504 -0.09004268 0.11689385
0.19490954 0.08983221 0.18135764 0.2893877 -0.17836662 -0.10064903 -0.1371673 -0.108877815
-0.098054 0.008381424 -0.33282286 0.013827619 0.44754818 0.028954629 -0.054353833 -0.11204177
0.095945686 -0.105239384 0.1557273 -0.17104714 0.22863233 0.5181161 0.13781053 -0.08683984
-0.32586697 0.010795752 -0.18218763 -0.019265082 0.03572213 -0.2818773 -0.05699312 -0.020671746
-0.04643541 0.18289568 0.07705649 0.35361385 0.27255645 -0.23548172 0.02133981 -0.2792067
0.060611375 -0.03668714 -0.12568338 -0.37747762 0.25373656 0.02902666 0.14558367 -0.007402298
0.06754224 -0.30272913 0.01396384 -0.24436554 0.029226141 -0.0026352317 0.33457655 0.06273867
0.30483133 -0.1485267 0.41880223 0.13465203 0.010619404 0.33789256 -0.18248549 -0.04655457
-0.23807791 0.2142386 -0.23682016 -0.15007201 0.40507302 -0.097884625 -0.005934715 0.087557286
0.19485588 -0.05328651 0.002565262 0.040028803 0.07853614 -0.49772242 -0.22404231 -0.048554275
-0.2069285 0.2325563 -0.102427304 0.62915635 -0.051570952 -0.07855986 -0.08552703 -0.0326033
-0.26189494 -0.08496314 -0.22132556 -0.17802098 -0.14504015 0.25778297 -0.0014546947 -0.08212698
-0.0371754 0.08978961 0.11675449 -0.2343078 -0.03377912 0.17893435 0.23846424 -0.03565009
0.076057605 0.29311344 0.2617629 0.23541538 -0.09694428 0.17256902 0.1011021 0.052846316
-0.11193312 -0.2853502 0.2413286 -0.26913658 0.13403757 0.22316788 0.34105197 0.03857697
-0.0054928586 -0.065122455 0.16095616 0.16948913 -0.09754437 -0.020607485 -0.26030374 0.21967837
-0.14050092 0.28937668 -0.037288763 0.10816863 0.3439862 -0.04740178 -0.05309853 -0.19367135
0.04159657 -0.176635 -0.2052125 -0.13329317 0.27413276 -0.3055131 -0.09782265 -0.18201092

linear.0.bias f4 [16]
00000000: 4cc2 1cbf eac5 b5be fb59 dabe 7979 22be
00000010: d92b 9bbe 8916 2d3d e6bd 683d 32f2 99be
00000020: d5eb 42be 339c 86be 7663 88bc 2df2 f93e
00000030: 3510 0fbd 08d7 4cbe 0b51 cdbe b532 3c3e
-0.61233974 -0.3550256 -0.42646775 -0.1586665 -0.3030689 0.04225782 0.056821726 -0.30067593
-0.19035275 -0.26291046 -0.01664899 0.48817578 -0.034927566 -0.20003903 -0.40100893 0.18378718

out.0.weight f4 [1, 16]
00000000: 7c8f b5bf 2648 bb3e f999 b9bf ce14 d93e
00000010: 51b1 ad3e c649 b73e c433 9d3e 0baf 003f
00000020: 6a0e cabf 1fc7 c5bf d757 6b3e 0cce b7bf
00000030: 9fc1 003f 79f2 e33e 472f 3c3f 38e0 cfbf
-1.4184413 0.36578482 -1.4500114 0.42398685 0.33924344 0.35798472 0.30703557 0.50267094
-1.5785649 -1.5451392 0.22982727 -1.4359756 0.5029544 0.4452093 0.7350964 -1.6240301
