models_checkpoints/model_test1.pt (torch_old, 45160 bytes, 7 tensors)

fc.0.weight f4 [64, 128]
00000000: cabe 8c3e cb59 b13e f3ec a03c d069 bfbc
00000010: 193f 6a3d f26d 9cbd 29a8 453c 149d 583e
00000020: ff77 613e 0cbf 07bd b2e3 803e 2ffd 9c3e
00000030: 098b 85bd 4ad8 cebe 518c 383e 6c83 e13c
00000040: 20c2 ea3c 197c 46bd 5d2b 72bd dcee 023e
00000050: 5be5 07be 27e2 0c3e 5e6c 003e 891c 9c3d
00000060: c333 703d 9e9d e43d d13f 0c3d 3df4 c0bd
00000070: fe26 3dbe 61cb 3cbe d0e1 a9bc c965 99bc
00000080: c0c8 61bd d784 30be 1077 00bc b3f9 a0bd
00000090: 12e2 9ebd 9dda b83d ed15 f7bc f7ac 04bd
000000a0: 51cd 093e 404e 753e 63b7 723e 1e78 733d
000000b0: 6064 783d b250 ffbd c9a9 cdbd 4c79 1dbd
000000c0: fb04 923e a2ec d93c 3fa8 733c dabf ba3d
000000d0: b433 e4bd 0333 5cbe 4dd5 40bd 7a8d ac3d
000000e0: 76b0 54be fc38 303d 00a2 15bd 3940 85be
000000f0: 24a9 6dbb 4460 a63d 6daf 20bc d520 75bd
00000100: bfd2 a13d fada 383e 7a55 4fbc e8f9 28be
00000110: b0bf 503e a9e8 37bd 1ccc 97bd a7a7 b63d
00000120: 8297 623d 8e04 41bd 449c 453e a930 773d
00000130: 5c45 383d 61f5 13bd d97b 3fbe 7409 83bc
00000140: 9b75 973c 6825 86bc 2ea3 883d 9e3f 81bc
00000150: bfd0 573d d7e4 83bd 80b2 31bd bdaf 963d
00000160: 75c3 e23d 25fd 2abe 44c6 253e 2c02 a4bd
00000170: 0a4d c7bb cdac 5cbd d810 46bc 606c 06bd
00000180: 9b9b 753b 56a8 c1bd ea11 ae3d c574 073d
00000190: 0188 2c3e 7b12 3a3e 6566 c53d 5bdc 96bd
000001a0: 25db 243e 6a24 0c3e 4612 ca3d 6043 1dbe
000001b0: ba60 ed3d fd00 b43d e202 7a3d be4a 1ebe
000001c0: d24b e43d c09b a0bd ae1b 51be 65ed 883d
000001d0: 1777 4a3e 668d 7cbe 6263 0a3e db02 29bd
000001e0: ffc3 97bd c79b 153d 9fd6 d2bc 7138 11be
000001f0: a61d 453e cfd3 833c 5986 dabc 7135 213d
00000200: 58c5 b73e b4c6 633e 009c 9bbc 4a90 403e
00000210: 8b1b 1fbd 02eb 553d f357 e23c 863e 703e
00000220: 84a7 a13e 03b2 a03d c197 883e b7e9 383d
00000230: ce2c febc 840b 85be 5357 40be aec0 7e3d
00000240: 16e0 ac3d 778e c7bd d490 7cbd 47c9 373e
00000250: 1e9c 13be e7e6 2b3e f633 113b 1171 49bc
00000260: 3893 a53d 4ac7 a5bd 7092 573e e179 7e3c
00000270: f97a 83bd 8729 1abe e081 0b3d 4ad0 d7bb
00000280: 1d62 0f3d 42dc 16bd 23b6 47be b59b 10bd
00000290: da5b 843d 151f 873c 4fc1 2cbe 889d 7dbd
000002a0: a05d 743c def3 5f3e 64cf f63d 0fd8 9c3d
000002b0: 92bb 48bd 7527 773c 84eb d8bd a8da e9bc
000002c0: 4c69 f73d fe03 18be 6a15 65bd 6692 a73e
000002d0: dc92 513d a273 b3be 06f2 8cbd fa68 053e
000002e0: e52d 183e aad7 7f3d ef3a 473b fb57 fd3d
000002f0: c2c4 ff3d 2947 adbc 5715 443d 2511 bf3d
00000300: 53a3 f9bd 821e c1bd 9681 953d 5bfa 8b3e
00000310: de16 6f3d 9743 4fbe c740 a5bd 134e 1ebe
00000320: d2f7 8cbe 004b 033e b48c 02be 30fd 7ebd
00000330: 7250 af3d 02a4 66be 4a0c 59bd be0a a1bd
00000340: f950 3e3d dd84 8bbc 322c f83d 617b 3e3d
00000350: ada5 783c bc95 ae3e 0350 d0bd 09d4 b2bc
00000360: 2dd2 f13d f2ce 41bd 8a23 6c3e 69de 163e
00000370: 1420 fabd d614 bbbd e40c eabc 28eb 82bd
00000380: 73c1 d7bd cf3f 4ebb c35c 663c 5a71 883a
00000390: fc4f 3c3e 699b 8f3d fe66 dabd a0e7 663d
000003a0: e3f3 e43d 5a75 d03d 41ee fb3d 66cb df3d
000003b0: c1f1 4cbe fbc0 e53d 744d 2e3d 8b28 e43d
000003c0: d3b4 a23d 70e3 2cbe 0b38 a0be a3d7 6e3d
000003d0: f5c9 2a3e f598 73be 5cb9 a03e 26ab eb3d
000003e0: e5eb 6abe edde 1e3d db81 813d 9f41 4abd
000003f0: a084 5e3d c3fe 523d c2e2 09be dbff 063e
0.2748931 0.3463882 0.019644236 -0.023365885 0.05718908 -0.07638158 0.012064018 0.2115367
0.22018431 -0.03314118 0.25173718 0.30661914 -0.065206595 -0.4039939 0.18022276 0.027528487
0.02865702 -0.048458192 -0.059123386 0.1278643 -0.13271086 0.13758145 0.12541339 0.0762263
0.058643114 0.111628756 0.034240548 -0.09421585 -0.18471906 -0.18436958 -0.020737559 -0.018725293
-0.05512309 -0.17238174 -0.007840887 -0.07860126 -0.07757963 0.09026072 -0.030161822 -0.032391515
0.13457228 0.23955631 0.23702769 0.059440725 0.0606426 -0.12466563 -0.100421496 -0.038445756
0.28519425 0.026602093 0.014871656 0.09118624 -0.11142674 -0.21503834 -0.04707842 0.08425422
-0.2077044 0.043023095 -0.03653145 -0.2602556 -0.0036264146 0.0812383 -0.00980745 -0.059845764
0.07901525 0.18052283 -0.012654657 -0.16501582 0.20385623 -0.044899616 -0.07411978 0.08918696
0.05532027 -0.047123484 0.19297892 0.06034914 0.04498802 -0.036122683 -0.18699588 -0.015995719
0.018488696 -0.016375259 0.06671749 -0.015777405 0.05268931 -0.06440132 -0.04338312 0.07357738
0.11072437 -0.1669813 0.16188914 -0.08008227 -0.006082182 -0.053875733 -0.012088977 -0.0328182
0.0037476781 -0.09455936 0.084995106 0.033070344 0.16848756 0.18171112 0.09638671 -0.07366248
0.16099222 0.13685766 0.09866767 -0.15357733 0.11590715 0.08789251 0.061037906 -0.154582
0.11147274 -0.07842207 -0.20420715 0.066859044 0.19771992 -0.24663314 0.13514474 -0.04126249
-0.0741043 0.036525514 -0.025737105 -0.14181687 0.19249591 0.01609221 -0.02667539 0.039357606
0.3589275 0.22243768 -0.018995285 0.18805042 -0.038844626 0.052226074 0.027629828 0.23461351
0.31573117 0.07846453 0.2667828 0.045144763 -0.031027224 -0.25985348 -0.18783312 0.062195472
0.084411785 -0.0974397 -0.061661556 0.17947875 -0.14415023 0.16787301 0.0022156215 -0.012295024
0.080847204 -0.08094652 0.21051955 0.015531988 -0.064199395 -0.15054904 0.034059405 -0.0065861093
0.035005677 -0.036831148 -0.19503073 -0.035304744 0.06462832 0.016494313 -0.16870616 -0.06191781
0.0149149 0.21870372 0.12051275 0.076583974 -0.049007006 0.015085091 -0.10591796 -0.028546646
0.12080631 -0.14845273 -0.055928625 0.3272888 0.051165447 -0.35049158 -0.068821 0.13028327
0.14861257 0.062461533 0.0030400117 0.123702966 0.124887004 -0.021152096 0.047871914 0.09329442
-0.12189355 -0.09429647 0.07300107 0.27339444 0.058371417 -0.20240627 -0.08068996 -0.1545947
-0.27532822 0.12821579 -0.12748986 -0.062253177 0.085602656 -0.22523502 -0.052990235 -0.07863377
0.04646394 -0.017031128 0.121178046 0.046504382 0.015176219 0.34098613 -0.10171511 -0.021829622
0.11807666 -0.0473165 0.23060432 0.1473328 -0.1221315 -0.091348335 -0.0285706 -0.06392509
-0.105349444 -0.0031471138 0.014060202 0.0010409758 0.18389887 0.07012064 -0.106641755 0.05637324
0.1117933 0.10178633 0.12301303 0.10927467 -0.20014097 0.11218449 0.042554334 0.111405455
0.07944646 -0.16883636 -0.31292757 0.058311116 0.16678603 -0.23788817 0.31391418 0.11507253
-0.22941549 0.038786817 0.06323596 -0.049378987 0.0543257 0.05151249 -0.13465407 0.13183539

fc.0.bias f4 [64]
00000000: 71a9 87be 2663 adbe 9671 a5be fb64 1ebe
00000010: 0b9c a2be 04eb 41be 5e04 bcbd c93a 74bd
00000020: b3bf 89be ed10 3dbe d6b4 eebe 0fb3 aabe
00000030: a0e4 8fbe 24f3 cdbe 09d4 24be 4b63 98be
00000040: 16e8 8dbe f104 5cbe 67fb f9be e181 1bbe
00000050: 596d 4abe 7c12 2dbe 2153 84bd c233 38be
00000060: f72c 00be a366 91be 4824 f4be cd87 12be
00000070: 647b d8be 687b b5be d926 1ebe c4a5 3dbd
00000080: 8e86 24be b63d 29bf 2216 57be 6b9d a8bd
00000090: 00d4 02bf 02b4 78be c56b 6abe 9917 febe
000000a0: 08e3 89be 6b2d d7be f617 70be 144c 29be
000000b0: a1bb 48be 8507 c2be 4932 d7be 2309 d2be
000000c0: 37bf c1be ab49 9abe 2cab 25bf 020a 90be
000000d0: c1f4 c2be 83bc a6be 347b 9cbe f7b5 8fbd
000000e0: c84e 08be 7d56 13be f924 6dbe 6f3e 70be
000000f0: 6f09 78be 1924 9fbe 5f7c d1bd 2a6c ccbe
-0.2649646 -0.33864707 -0.32313222 -0.15468208 -0.31759676 -0.18937308 -0.091805205 -0.059626374
-0.26904067 -0.18463488 -0.46622342 -0.33339736 -0.28104115 -0.40224564 -0.1609651 -0.29763255
-0.2771613 -0.2148626 -0.48824617 -0.15186264 -0.19768275 -0.16901582 -0.06461168 -0.17988494
-0.12517153 -0.28398618 -0.4768393 -0.14309616 -0.4228164 -0.35445714 -0.15444507 -0.046300665
-0.16066954 -0.6610979 -0.21004537 -0.0823315 -0.51104736 -0.24287418 -0.22892673 -0.4962738
-0.26931024 -0.4202684 -0.2344664 -0.16532928 -0.19602825 -0.37896362 -0.42030552 -0.41022596
-0.37841198 -0.3013433 -0.6471431 -0.28132635 -0.38077357 -0.32565698 -0.30562747 -0.07017129
-0.13311303 -0.14388461 -0.23158635 -0.23461317 -0.24222349 -0.31082228 -0.102288 -0.39926273

fc.3.weight f4 [32, 64]
00000000: 7b97 793d 75d3 d2bb 047a 0fbe 7cfa 87bc
00000010: c4c9 043e e7df 7f3d 77b0 7fbe 85f7 a43d
00000020: df4b a3be 9d10 e93d 6f32 6e3e 389c 29be
00000030: ccd1 363d 5f6f 15be fb4b 113e 9b46 a0bd
00000040: 0273 4d3d cbe6 74be 9859 32bd 09cb 85bd
00000050: 8465 b53d 39f3 5fbb f0e9 96be 631c 52be
00000060: 3a6d 473e af6b 0c3e d4d9 74bc bcd5 b5be
00000070: 1362 a83d d592 f1b9 fa73 70be 28b8 a63c
00000080: f290 61bc 9efb e1bd e3c6 62bd dd7a 733d
00000090: e9ac 043e 3f38 9ebd 7308 c3bd e126 243e
000000a0: 653f e83d e4d8 103e 2063 3d3d 16b0 01be
000000b0: 275c 213d 3a98 b83d 7c5a 22be 62a4 003c
000000c0: 1343 febd 4424 95bd 203f 2e3e 8623 0ebe
000000d0: e7ad e0bd 0996 1dbe e16b 0cbe 770d 4c3d
000000e0: dc48 ad3d da1b 84be 52c2 8b3d 8374 413c
000000f0: 12fc 443d c5d2 05bc 5a5d 2c3e 3f9a 95bd
00000100: 34db 273e 0478 503e bd23 723e e21a bebe
00000110: 8c87 6cbd e619 85be 4d37 213e ccac 1b3e
00000120: 8751 e93d b198 bb3d 646a 49be 07ad 39bc
00000130: dd15 e73d b7f6 b0be 0788 78be f41d 4a3e
00000140: 8d1c 2bbe 5dd4 3b3e e3b1 8ebe f810 6f3e
00000150: 0728 0abe fda3 eb3a bfb9 053e 291e 06bd
00000160: f253 2abe b318 183e ff0e 8d3e a4d8 073e
00000170: 814b 503e fa17 88bd c0fd 743d 048e 3abe
00000180: ddd3 933c 8726 f33c 92c8 8cbe 3020 12bd
00000190: c0be 083d 4f5b 113d 075c bebc eb70 1fbe
000001a0: aae5 10be 393e c0bc be52 84be 1937 a33d
000001b0: 2f87 6fbe 6459 c6be 96cc 8fbd 8d0d 4c3e
000001c0: 0d97 673e c876 88bd adf7 b53d fc3e 16be
000001d0: f41b 4cbe 8c62 2dbc 4d2f b53c 6376 96be
000001e0: 53b8 d93d 2fc8 0a3d 5a88 60be f76c 803d
000001f0: 0281 b1bc facf af3d a97d ccbe ead7 b7bd
00000200: c35c d23d 9494 d53d bf20 3d3c f79b 11bd
00000210: fcea b43b 749d 5ebd bd98 953c fab7 3abe
00000220: e009 3c3d 5d32 7fbe 68b3 5f3d 4bf3 14be
00000230: ff8f 8fbd df75 45bd cb3e e4bb 9a60 69be
00000240: 6675 dbbd 5710 ec3d fae5 813d b416 d53d
00000250: c832 a43c 5c51 253e f2fe 023e c704 d83d
00000260: b334 52be 4a1d 4abe 755f b63d 29fb 8f3e
00000270: 3249 b03d f7b2 493d 8139 933d af1e b5bc
00000280: 4aa5 b639 d773 383e a12c 1abe 1b6b 453e
00000290: ff89 d1bd 0255 03be 6534 03be e871 d13d
000002a0: a915 8e3e 3bd5 8c3d 6d1a bdbe 2336 b63d
000002b0: 63a4 42be d114 47be 508d d5bd a531 4ebc
000002c0: 8c67 9cbd 22eb f2bd b5f4 7c3e 6206 9fbd
000002d0: d216 68be 81d4 1fbe b894 8c3b 422e 65bc
000002e0: ff7f e1bd 5e58 9fbe 62b9 b0bd 5bd5 9a3d
000002f0: 7edd 26be 3735 dabc c80c 05be f2db f5bb
00000300: ca04 abbe 1fec d1be 4465 46bd b1b9 92bc
00000310: 8f11 fe3c 3c6b 103e 4566 6fbe 1ab6 b43e
00000320: 9a73 8f3d 9be1 893d e5b9 08be 5a25 a5bb
00000330: 714f 023e 08ed 6bbd 88e4 bfbc 2788 14be
00000340: 1fcf 4f3e e8d8 32bd 5294 32bc 1a8c 85bc
00000350: 470e 053e fb57 713e fdd0 dfbc 5f7a 99bd
00000360: 8b3f 133e 9fef c23c 58d5 cf3c f23b 5a3d
00000370: 5a11 83be 328b d8bd 2ef5 b0bc 573a 6a3e
00000380: a5e9 b93e 408f 11be 59d2 70bd 75a7 4bbe
00000390: 0e3c 66bd ce28 063e 20dc 3dbd e15c 79be
000003a0: c4e1 dfbd 6815 863e f561 1f3e b86d dabe
000003b0: bf9f 813e 8f69 c0bc 4c6e 99bd 821f 86bc
000003c0: 1600 b13d 1ed7 883e 0c0b bfbe 5eac 533e
000003d0: 8478 713d fa50 2bbd 3314 55bc d4ae 5d3d
000003e0: 50d9 db3d eef0 1abe e178 2f3d 2735 d9bc
000003f0: e172 603e e9d1 453e 19a2 773d 55f9 843e
0.06093548 -0.006433899 -0.14011389 -0.016598932 0.12967592 0.06246939 -0.2496966 0.08055023
-0.31893823 0.11380122 0.23261426 -0.16563499 0.04463367 -0.14593266 0.1418914 -0.07825967
0.050158508 -0.23916166 -0.043542475 -0.065328665 0.08857253 -0.0034172072 -0.29475355 -0.20518641
0.1947526 0.13712953 -0.014944512 -0.3551463 0.08221831 -0.000460765 -0.23481742 0.020351484
-0.013767468 -0.1103432 -0.055365454 0.059443343 0.12956585 -0.07725572 -0.09523096 0.16030456
0.113402165 0.14145237 0.04623711 -0.12664828 0.039394524 0.0901341 -0.1585483 0.007851692
-0.12415137 -0.07282308 0.17016268 -0.13880739 -0.10970669 -0.15389265 -0.13713028 0.04981753
0.084611624 -0.258025 0.06824173 0.011807564 0.048091955 -0.008167927 0.16832486 -0.07304811
0.16392213 0.20358282 0.23646446 -0.37129885 -0.057746455 -0.2599632 0.15743752 0.15202636
0.11392503 0.09159983 -0.19669491 -0.011332757 0.11283467 -0.34563228 -0.2427064 0.19737989
-0.1671011 0.18342729 -0.27870092 0.23346317 -0.13491832 0.001797795 0.13059138 -0.032743607
-0.16633585 0.14853172 0.27550504 0.13266236 0.20341302 -0.06645198 0.059812307 -0.18218237
0.01804536 0.029681457 -0.27496773 -0.035675228 0.03338504 0.03548747 -0.023237241 -0.15570419
-0.1415011 -0.02346717 -0.25844377 0.079694934 -0.23391412 -0.38740075 -0.070214435 0.19927044
0.22616215 -0.06663281 0.08885131 -0.14672464 -0.19932538 -0.010582577 0.022117281 -0.29387197
0.1063086 0.033882316 -0.21927014 0.062707834 -0.021667961 0.0858459 -0.3993962 -0.08976729
0.10271599 0.1042873 0.011543452 -0.03554913 0.0055211764 -0.054349378 0.018261308 -0.18234244
0.045907855 -0.24921556 0.054614455 -0.14545934 -0.07009887 -0.048208114 -0.0069654933 -0.22790757
-0.10715751 0.11526554 0.06342693 0.10404721 0.020043746 0.16144317 0.12792566 0.10547786
-0.20527916 -0.19737735 0.08904926 0.28121307 0.08607711 0.04924294 0.071887024 -0.022109358
0.00034836895 0.1801294 -0.15056087 0.19279139 -0.10231399 -0.12825397 -0.12812956 0.10226804
0.277509 0.06876608 -0.36934224 0.088970445 -0.19008021 -0.19441535 -0.10427344 -0.012585078
-0.076369375 -0.11861254 0.24702723 -0.07764889 -0.22664955 -0.15608408 0.0042901896 -0.0139880795
-0.110107414 -0.31122106 -0.08629109 0.075602256 -0.1629543 -0.026636703 -0.12993157 -0.007503026
-0.3340209 -0.4100046 -0.04843642 -0.01791081 0.031014232 0.14103407 -0.23378856 0.35295182
0.07004471 0.06732484 -0.13352163 -0.005039853 0.12725617 -0.057599097 -0.023424402 -0.14505063
0.20293854 -0.04366389 -0.01089962 -0.016302157 0.12993728 0.23568718 -0.027321333 -0.074940436
0.14379708 0.0237959 0.025370285 0.053279825 -0.25599176 -0.105734244 -0.021601286 0.22873817
0.3631107 -0.14214802 -0.058794353 -0.19888099 -0.056209616 0.13101503 -0.046352506 -0.24351837
-0.10931733 0.26188207 0.15564711 -0.42661834 0.2531719 -0.023487834 -0.074917406 -0.016372446
0.086425945 0.2672662 -0.37313116 0.20671222 0.058952823 -0.041825272 -0.013005304 0.054121807
0.107348084 -0.1513097 0.04283989 -0.026514603 0.21918823 0.19318356 0.060457323 0.25971475

fc.3.bias f4 [32]
00000000: 7c65 eebd 470f 1c3f 31b7 63be 9b7d f33e
00000010: a9c6 063d a47b a23e 7161 d9bc 8fcd 13be
00000020: 93d5 e7be 758a ac3e d089 9b3e 16b6 2f3f
00000030: a2e8 ca3e 84b2 993d 6966 cfbe a387 0fbf
00000040: 9d84 a73d 90bb bdbe 1f33 053f acd3 0ebf
00000050: b13e 3abe e29d 863e 621d cebe 938f 5abe
00000060: 7a92 983e ca70 ebbe 0157 14bf a580 a8bd
00000070: fad9 e3bd 435d 98be 9180 79be 5334 6d3c
-0.1164045 0.6096081 -0.2223785 0.47556767 0.0329043 0.31734955 -0.026535721 -0.14433883
-0.45280132 0.33699384 0.3037858 0.68637216 0.3963061 0.07504752 -0.4050782 -0.5606634
0.08179591 -0.3705716 0.5203113 -0.55791736 -0.18187977 0.2629233 -0.40256792 -0.21343832
0.29799253 -0.4598449 -0.5794526 -0.08227662 -0.1112556 -0.29758653 -0.2436545 0.014477807

linear.0.weight f4 [16, 32]
00000000: d88f de3b 85e8 d13e 5c8d fa3c ec08 86be
00000010: 1571 413e 147a 04be 3347 923c 0492 2d3d
00000020: 8650 493e 85d8 afbd f2bc 7bbd c983 003f
00000030: e927 e7be 0175 733e 5073 1cbe e12f 53be
00000040: e423 90bc a92f 8d3e 02f6 e6bd 1a0b e53d
00000050: f50d a8be a226 313e e470 8d3e 776c f83c
00000060: 972c 253e 718d 19be 8d62 2bbe 7e9a a6be
00000070: 292f 243d e2f8 3b3e 2de6 d3be da57 52be
00000080: 1ab3 c93d 20a0 97bd 3a43 19bd e854 133d
00000090: 7142 55bd 224b 893d ea93 9fba 2db7 1c3e
000000a0: 328e 153e fa83 413e a633 0cbd 826e 6d3c
000000b0: 0343 ee3c ef9f c3bd 5896 dcbc 24a3 de3c
000000c0: 70a2 3a3e 40c6 533e 6758 943e c08a 10be
000000d0: dec3 51be c74a 34bd 8757 953c 949c 2a3d
000000e0: d766 e83d a38f 853a c147 60bd be8d 323d
000000f0: aef9 b23e 05d1 89ba 733d d03d 6a4a d4bc
00000100: b61b 8c3d 83bd 283e 769c 973e ddbc 10bf
00000110: 023a 38bd 5cde 50bd d926 863e 5b5b 993e
00000120: 6354 6fbe b8f0 9d3d 1423 b6be d889 b1bc
00000130: c794 863d d916 3cbe 50f9 183e 175c 6f3c
00000140: f401 9d3e 274a 2fbe b2f4 5e3e 5b96 123e
00000150: f2c4 d5bd 0dc4 acbd 2238 94bd ef7f 9a3e
00000160: 8603 87be 7085 e73c ab1c 0c3e 1312 a2be
00000170: 702a 973e f8c6 0d3e 2aa2 4b3e dccb 87be
00000180: 2b03 293e 97fe 82be 1a76 7cbd d4d2 703d
00000190: f6ac b73d f2f1 e63d 715e 13be 164d bf3c
000001a0: efcc c13c 1bb2 353d 82c4 4f3d aa10 11be
000001b0: b982 ab3d c153 4dbe d602 f23c e241 79be
000001c0: 7761 383d a3da 183e e82c 223d 7a92 47be
000001d0: 823e dabd cdc1 863d 1cbc f63d 9070 4d3e
000001e0: 8960 c7bd f2b2 6fbd 15f9 8ebd 377d 4fbd
000001f0: da89 893e b304 85be 6ca3 c53d 4eda 493d
00000200: b485 67bd ee99 413e 1c7a b1bd ca80 32be
00000210: b810 093e 93da c33e cb43 afbe 2a9c 153e
00000220: edde 1dbe 650b 07bf 6a4e 40be a66b 9abc
00000230: 730b ebbb 16c0 f6bd f4ce 15bd e0cb 8fbd
00000240: 1dc1 843e baa8 0d3d ac90 0d3d 6f5d 7b3e
00000250: 29f5 d6bc f17c a9be db7b 90be d3ef aebd
00000260: 80ea d53d 6898 2f3d a103 c7bd 8f09 863d
00000270: e5d9 423d b027 e73c 208b 6e3e e2dd 8e3e
00000280: 54f9 cfba 32fb e9bd 93c0 be3d 604a 89bd
00000290: e76d e93d f9e6 3bbc b38f 6ebd 1564 fbbd
000002a0: b8d2 0d3e 04cc a93d a9f7 c13c 0d40 583d
000002b0: 0486 0dbe 4ca6 21be d421 463d f7dd b73b
000002c0: e09e 173c 5c45 163d 7fd6 fdbc 537a 35be
000002d0: 3558 f8be 0e99 ce3d 882b 293c 1132 ff3c
000002e0: a712 d63c 7906 73be 1dfc fbbd d940 21be
000002f0: c741 b83c 6ec9 8fbe 2430 e3bd 9788 f3bd
00000300: 1b89 b1bc 65e3 0cbe 007b bebe 1b69 f73e
00000310: c78f 533e bf5c be3e 6372 79be fcaf afbd
00000320: 39bb 813e 51ea 9f3d 46aa 783e 62d9 0f3b
00000330: cd3e b73e cafd 533d 02cf c6bd 8ee9 4e3e
00000340: 975f e5bc fd74 123e 4818 e4be d669 c23c
00000350: e0c9 543d 3a06 babe c571 a53d 967c a5be
00000360: 7984 143e 2fc0 68bd 709f 14be e159 ca3c
00000370: 1786 74bd cca7 01bc 3b78 dabd 7623 1c3e
00000380: 53a2 1c3e b7e2 4dbe 1be1 2e3e a8a3 58bd
00000390: 1c13 c9bd 16aa 35be e542 893d 0807 d9bc
000003a0: eb38 9c3e be50 6bbd 1c24 cebd b556 d3be
000003b0: 23a4 7cbe e713 d8bd af78 143d e03c 2f3e
000003c0: 0090 82bd a237 c33e d5b1 4fbe f2b5 063e
000003d0: e2f6 093e c632 7bbd 67da 833e 936d 1f3e
000003e0: 31c9 08be 3a9d 7c3d ffcf 603e 0a9b 263e
000003f0: 7f86 673e c8aa 803d 83c1 133e 32c2 3ebd
0.00679205 0.4099771 0.030584984 -0.26178682 0.18890794 -0.12937194 0.017856216 0.04237558
0.19659624 -0.0858622 -0.06145949 0.5020109 -0.45147637 0.23775102 -0.15278363 -0.20623733
-0.017595239 0.27575424 -0.11277391 0.11183758 -0.32823148 0.17299893 0.2762519 0.030325158
0.16130291 -0.14995362 -0.16736813 -0.32539743 0.040084038 0.1835666 -0.41386548 -0.20541325
0.09848614 -0.07403588 -0.037417628 0.035969645 -0.052065317 0.067037836 -0.0012174819 0.15304251
0.14605024 0.18898001 -0.034228943 0.014491679 0.029084688 -0.09551989 -0.026927158 0.0271774
0.18226027 0.20681095 0.28973696 -0.14115429 -0.20484874 -0.044016626 0.018230213 0.04165323
0.1134774 0.0010189902 -0.05475593 0.043592207 0.34956115 -0.0010514563 0.101679705 -0.02591439
0.06841223 0.16478543 0.29611558 -0.5653818 -0.044977196 -0.05099331 0.26201513 0.2995251
-0.23372035 0.07711929 -0.35573637 -0.021672174 0.06571346 -0.1836809 0.14938855 0.014609358
0.30665553 -0.1711813 0.21773031 0.14315169 -0.10437955 -0.08435831 -0.07237269 0.3017573
-0.26369876 0.02826187 0.13682811 -0.31654415 0.29524565 0.13845432 0.1988608 -0.2652272
0.16505115 -0.25584862 -0.061636068 0.05879481 0.089685366 0.11276616 -0.14391495 0.023352187
0.02365729 0.044359308 0.050724514 -0.14166513 0.08374543 -0.20051481 0.029542368 -0.24341539
0.045014825 0.14927153 0.039593607 -0.1948947 -0.10656454 0.06579933 0.12047598 0.2006247
-0.097352095 -0.058520265 -0.069811024 -0.050656524 0.26862985 -0.25980148 0.09650311 0.049280457
-0.056523994 0.18906376 -0.08665869 -0.17431942 0.13385284 0.38252696 -0.3423141 0.14610353
-0.1541707 -0.5275176 -0.18779913 -0.018850159 -0.0071729957 -0.12048356 -0.03657432 -0.07021308
0.25928584 0.03458474 0.034561798 0.24547361 -0.026239948 -0.33103135 -0.28219494 -0.085418366
0.10445118 0.042869955 -0.09717489 0.06544792 0.04757108 0.028217167 0.2329526 0.27903658
-0.0015867152 -0.11424865 0.09314074 -0.06703639 0.11397915 -0.011468642 -0.05824251 -0.122749485
0.13849914 0.08290866 0.023677664 0.05279546 -0.13820654 -0.15786093 0.048372105 0.005611177
0.009254187 0.03668724 -0.030986069 -0.17722444 -0.48504797 0.100877866 0.01032532 0.031151803
0.026131941 -0.23732938 -0.12303946 -0.15747394 0.022492303 -0.28083366 -0.110931665 -0.11891287
-0.021671822 -0.13758619 -0.37203217 0.48322377 0.20660315 0.37180135 -0.24360041 -0.08578488
0.25338152 0.07808364 0.24283704 0.0021949639 0.357901 0.051755704 -0.09707452 0.20206282
-0.027999682 0.1430244 -0.44549775 0.023732107 0.051950336 -0.36332875 0.080783404 -0.32321614
0.1450366 -0.056823906 -0.14513946 0.02470106 -0.05969819 -0.007913541 -0.106674634 0.15247902
0.15296297 -0.20106016 0.17078058 -0.05289045 -0.09818098 -0.17740664 0.06702212 -0.02649261
0.30512175 -0.05745005 -0.10065481 -0.4127709 -0.24671988 -0.10550671 0.036247905 0.17113066
-0.06375122 0.38128382 -0.20282681 0.13155344 0.13473085 -0.06132772 0.25752565 0.15569143
-0.13357998 0.06167338 0.21954344 0.1627008 0.226099 0.06282574 0.14429288 -0.046571918

linear.0.bias f4 [16]
00000000: 35ee a3bc 817f b03e 7d17 91be bb9a 843d
00000010: dfc7 963d 3193 ab3d f148 813c 3d38 74bf
00000020: 99eb 5e3e 695e bf3e 1986 6fbe 526c db3e
00000030: 4855 a23e 9b03 abbe d642 f3be 2e13 c63d
-0.020011047 0.34472278 -0.28338233 0.06474825 0.07362341 0.08377684 0.015781851 -0.9539831
0.21769561 0.37376717 -0.23390998 0.4285608 0.3170569 -0.33401188 -0.4751193 0.09671627

out.0.weight f4 [1, 16]
00000000: d7cb a6bf 3221 88bf 1538 5e3f eb80 90bf
00000010: c225 0f3f 9cdd a7bf 96f5 383f bf23 b7bf
00000020: cdfc 2d3f 16d6 76bf 3ba4 133f d6df 99bf
00000030: 4fcd a7bf a6b3 9bbf 077a adbf 9852 113f
-1.3030957 -1.063513 0.86804324 -1.1289343 0.5591699 -1.3114505 0.72249734 -1.4307784
0.6796387 -0.9642042 0.5767247 -1.2021434 -1.310953 -1.2164199 -1.3552865 0.56766653
